<?xml version="1.0"?>
<net name="Model0" version="11">
	<layers>
		<layer id="0" name="x" type="Parameter" version="opset1">
			<data shape="?,3,?,?" element_type="f32" />
			<output>
				<port id="0" precision="FP32" names="x">
					<dim>-1</dim>
					<dim>3</dim>
					<dim>-1</dim>
					<dim>-1</dim>
				</port>
			</output>
		</layer>
		<layer id="1" name="self.conv_first.weight_compressed" type="Const" version="opset1">
			<data element_type="f16" shape="64, 3, 3, 3" offset="0" size="3456" />
			<output>
				<port id="0" precision="FP16" names="self.conv_first.weight">
					<dim>64</dim>
					<dim>3</dim>
					<dim>3</dim>
					<dim>3</dim>
				</port>
			</output>
		</layer>
		<layer id="2" name="self.conv_first.weight" type="Convert" version="opset1">
			<data destination_type="f32" />
			<rt_info>
				<attribute name="decompression" version="0" />
			</rt_info>
			<input>
				<port id="0" precision="FP16">
					<dim>64</dim>
					<dim>3</dim>
					<dim>3</dim>
					<dim>3</dim>
				</port>
			</input>
			<output>
				<port id="1" precision="FP32">
					<dim>64</dim>
					<dim>3</dim>
					<dim>3</dim>
					<dim>3</dim>
				</port>
			</output>
		</layer>
		<layer id="3" name="__module.conv_first/aten::_convolution/Convolution" type="Convolution" version="opset1">
			<data strides="1, 1" dilations="1, 1" pads_begin="1, 1" pads_end="1, 1" auto_pad="explicit" />
			<input>
				<port id="0" precision="FP32">
					<dim>-1</dim>
					<dim>3</dim>
					<dim>-1</dim>
					<dim>-1</dim>
				</port>
				<port id="1" precision="FP32">
					<dim>64</dim>
					<dim>3</dim>
					<dim>3</dim>
					<dim>3</dim>
				</port>
			</input>
			<output>
				<port id="2" precision="FP32">
					<dim>-1</dim>
					<dim>64</dim>
					<dim>-1</dim>
					<dim>-1</dim>
				</port>
			</output>
		</layer>
		<layer id="4" name="__module.conv_first/aten::_convolution/Reshape_compressed" type="Const" version="opset1">
			<data element_type="f16" shape="1, 64, 1, 1" offset="3456" size="128" />
			<output>
				<port id="0" precision="FP16">
					<dim>1</dim>
					<dim>64</dim>
					<dim>1</dim>
					<dim>1</dim>
				</port>
			</output>
		</layer>
		<layer id="5" name="__module.conv_first/aten::_convolution/Reshape" type="Convert" version="opset1">
			<data destination_type="f32" />
			<rt_info>
				<attribute name="decompression" version="0" />
			</rt_info>
			<input>
				<port id="0" precision="FP16">
					<dim>1</dim>
					<dim>64</dim>
					<dim>1</dim>
					<dim>1</dim>
				</port>
			</input>
			<output>
				<port id="1" precision="FP32">
					<dim>1</dim>
					<dim>64</dim>
					<dim>1</dim>
					<dim>1</dim>
				</port>
			</output>
		</layer>
		<layer id="6" name="__module.conv_first/aten::_convolution/Add" type="Add" version="opset1">
			<data auto_broadcast="numpy" />
			<input>
				<port id="0" precision="FP32">
					<dim>-1</dim>
					<dim>64</dim>
					<dim>-1</dim>
					<dim>-1</dim>
				</port>
				<port id="1" precision="FP32">
					<dim>1</dim>
					<dim>64</dim>
					<dim>1</dim>
					<dim>1</dim>
				</port>
			</input>
			<output>
				<port id="2" precision="FP32" names="42,input.1">
					<dim>-1</dim>
					<dim>64</dim>
					<dim>-1</dim>
					<dim>-1</dim>
				</port>
			</output>
		</layer>
		<layer id="7" name="self.RRDB_trunk.0.rdb1.conv1.weight_compressed" type="Const" version="opset1">
			<data element_type="f16" shape="32, 64, 3, 3" offset="3584" size="36864" />
			<output>
				<port id="0" precision="FP16" names="self.RRDB_trunk.0.rdb1.conv1.weight">
					<dim>32</dim>
					<dim>64</dim>
					<dim>3</dim>
					<dim>3</dim>
				</port>
			</output>
		</layer>
		<layer id="8" name="self.RRDB_trunk.0.rdb1.conv1.weight" type="Convert" version="opset1">
			<data destination_type="f32" />
			<rt_info>
				<attribute name="decompression" version="0" />
			</rt_info>
			<input>
				<port id="0" precision="FP16">
					<dim>32</dim>
					<dim>64</dim>
					<dim>3</dim>
					<dim>3</dim>
				</port>
			</input>
			<output>
				<port id="1" precision="FP32">
					<dim>32</dim>
					<dim>64</dim>
					<dim>3</dim>
					<dim>3</dim>
				</port>
			</output>
		</layer>
		<layer id="9" name="__module.RRDB_trunk.0.rdb1.conv1/aten::_convolution/Convolution" type="Convolution" version="opset1">
			<data strides="1, 1" dilations="1, 1" pads_begin="1, 1" pads_end="1, 1" auto_pad="explicit" />
			<input>
				<port id="0" precision="FP32">
					<dim>-1</dim>
					<dim>64</dim>
					<dim>-1</dim>
					<dim>-1</dim>
				</port>
				<port id="1" precision="FP32">
					<dim>32</dim>
					<dim>64</dim>
					<dim>3</dim>
					<dim>3</dim>
				</port>
			</input>
			<output>
				<port id="2" precision="FP32">
					<dim>-1</dim>
					<dim>32</dim>
					<dim>-1</dim>
					<dim>-1</dim>
				</port>
			</output>
		</layer>
		<layer id="10" name="__module.RRDB_trunk.0.rdb1.conv1/aten::_convolution/Reshape_compressed" type="Const" version="opset1">
			<data element_type="f16" shape="1, 32, 1, 1" offset="40448" size="64" />
			<output>
				<port id="0" precision="FP16">
					<dim>1</dim>
					<dim>32</dim>
					<dim>1</dim>
					<dim>1</dim>
				</port>
			</output>
		</layer>
		<layer id="11" name="__module.RRDB_trunk.0.rdb1.conv1/aten::_convolution/Reshape" type="Convert" version="opset1">
			<data destination_type="f32" />
			<rt_info>
				<attribute name="decompression" version="0" />
			</rt_info>
			<input>
				<port id="0" precision="FP16">
					<dim>1</dim>
					<dim>32</dim>
					<dim>1</dim>
					<dim>1</dim>
				</port>
			</input>
			<output>
				<port id="1" precision="FP32">
					<dim>1</dim>
					<dim>32</dim>
					<dim>1</dim>
					<dim>1</dim>
				</port>
			</output>
		</layer>
		<layer id="12" name="__module.RRDB_trunk.0.rdb1.conv1/aten::_convolution/Add" type="Add" version="opset1">
			<data auto_broadcast="numpy" />
			<input>
				<port id="0" precision="FP32">
					<dim>-1</dim>
					<dim>32</dim>
					<dim>-1</dim>
					<dim>-1</dim>
				</port>
				<port id="1" precision="FP32">
					<dim>1</dim>
					<dim>32</dim>
					<dim>1</dim>
					<dim>1</dim>
				</port>
			</input>
			<output>
				<port id="2" precision="FP32" names="87_1">
					<dim>-1</dim>
					<dim>32</dim>
					<dim>-1</dim>
					<dim>-1</dim>
				</port>
			</output>
		</layer>
		<layer id="13" name="44_compressed" type="Const" version="opset1">
			<data element_type="f16" shape="" offset="40512" size="2" />
			<output>
				<port id="0" precision="FP16" names="44" />
			</output>
		</layer>
		<layer id="14" name="44" type="Convert" version="opset1">
			<data destination_type="f32" />
			<rt_info>
				<attribute name="decompression" version="0" />
			</rt_info>
			<input>
				<port id="0" precision="FP16" />
			</input>
			<output>
				<port id="1" precision="FP32" />
			</output>
		</layer>
		<layer id="15" name="__module.RRDB_trunk.0.rdb1.lrelu/aten::leaky_relu_/PRelu" type="PReLU" version="opset1">
			<input>
				<port id="0" precision="FP32">
					<dim>-1</dim>
					<dim>32</dim>
					<dim>-1</dim>
					<dim>-1</dim>
				</port>
				<port id="1" precision="FP32" />
			</input>
			<output>
				<port id="2" precision="FP32" names="87,input.3">
					<dim>-1</dim>
					<dim>32</dim>
					<dim>-1</dim>
					<dim>-1</dim>
				</port>
			</output>
		</layer>
		<layer id="16" name="__module.RRDB_trunk.0.rdb1/aten::cat/Concat" type="Concat" version="opset1">
			<data axis="1" />
			<input>
				<port id="0" precision="FP32">
					<dim>-1</dim>
					<dim>64</dim>
					<dim>-1</dim>
					<dim>-1</dim>
				</port>
				<port id="1" precision="FP32">
					<dim>-1</dim>
					<dim>32</dim>
					<dim>-1</dim>
					<dim>-1</dim>
				</port>
			</input>
			<output>
				<port id="2" precision="FP32" names="90,input.5">
					<dim>-1</dim>
					<dim>96</dim>
					<dim>-1</dim>
					<dim>-1</dim>
				</port>
			</output>
		</layer>
		<layer id="17" name="self.RRDB_trunk.0.rdb1.conv2.weight_compressed" type="Const" version="opset1">
			<data element_type="f16" shape="32, 96, 3, 3" offset="40514" size="55296" />
			<output>
				<port id="0" precision="FP16" names="self.RRDB_trunk.0.rdb1.conv2.weight">
					<dim>32</dim>
					<dim>96</dim>
					<dim>3</dim>
					<dim>3</dim>
				</port>
			</output>
		</layer>
		<layer id="18" name="self.RRDB_trunk.0.rdb1.conv2.weight" type="Convert" version="opset1">
			<data destination_type="f32" />
			<rt_info>
				<attribute name="decompression" version="0" />
			</rt_info>
			<input>
				<port id="0" precision="FP16">
					<dim>32</dim>
					<dim>96</dim>
					<dim>3</dim>
					<dim>3</dim>
				</port>
			</input>
			<output>
				<port id="1" precision="FP32">
					<dim>32</dim>
					<dim>96</dim>
					<dim>3</dim>
					<dim>3</dim>
				</port>
			</output>
		</layer>
		<layer id="19" name="__module.RRDB_trunk.0.rdb1.conv2/aten::_convolution/Convolution" type="Convolution" version="opset1">
			<data strides="1, 1" dilations="1, 1" pads_begin="1, 1" pads_end="1, 1" auto_pad="explicit" />
			<input>
				<port id="0" precision="FP32">
					<dim>-1</dim>
					<dim>96</dim>
					<dim>-1</dim>
					<dim>-1</dim>
				</port>
				<port id="1" precision="FP32">
					<dim>32</dim>
					<dim>96</dim>
					<dim>3</dim>
					<dim>3</dim>
				</port>
			</input>
			<output>
				<port id="2" precision="FP32">
					<dim>-1</dim>
					<dim>32</dim>
					<dim>-1</dim>
					<dim>-1</dim>
				</port>
			</output>
		</layer>
		<layer id="20" name="__module.RRDB_trunk.0.rdb1.conv2/aten::_convolution/Reshape_compressed" type="Const" version="opset1">
			<data element_type="f16" shape="1, 32, 1, 1" offset="95810" size="64" />
			<output>
				<port id="0" precision="FP16">
					<dim>1</dim>
					<dim>32</dim>
					<dim>1</dim>
					<dim>1</dim>
				</port>
			</output>
		</layer>
		<layer id="21" name="__module.RRDB_trunk.0.rdb1.conv2/aten::_convolution/Reshape" type="Convert" version="opset1">
			<data destination_type="f32" />
			<rt_info>
				<attribute name="decompression" version="0" />
			</rt_info>
			<input>
				<port id="0" precision="FP16">
					<dim>1</dim>
					<dim>32</dim>
					<dim>1</dim>
					<dim>1</dim>
				</port>
			</input>
			<output>
				<port id="1" precision="FP32">
					<dim>1</dim>
					<dim>32</dim>
					<dim>1</dim>
					<dim>1</dim>
				</port>
			</output>
		</layer>
		<layer id="22" name="__module.RRDB_trunk.0.rdb1.conv2/aten::_convolution/Add" type="Add" version="opset1">
			<data auto_broadcast="numpy" />
			<input>
				<port id="0" precision="FP32">
					<dim>-1</dim>
					<dim>32</dim>
					<dim>-1</dim>
					<dim>-1</dim>
				</port>
				<port id="1" precision="FP32">
					<dim>1</dim>
					<dim>32</dim>
					<dim>1</dim>
					<dim>1</dim>
				</port>
			</input>
			<output>
				<port id="2" precision="FP32" names="97_1">
					<dim>-1</dim>
					<dim>32</dim>
					<dim>-1</dim>
					<dim>-1</dim>
				</port>
			</output>
		</layer>
		<layer id="23" name="__module.RRDB_trunk.0.rdb1.lrelu/aten::leaky_relu_/PRelu_1" type="PReLU" version="opset1">
			<input>
				<port id="0" precision="FP32">
					<dim>-1</dim>
					<dim>32</dim>
					<dim>-1</dim>
					<dim>-1</dim>
				</port>
				<port id="1" precision="FP32" />
			</input>
			<output>
				<port id="2" precision="FP32" names="97,input.7">
					<dim>-1</dim>
					<dim>32</dim>
					<dim>-1</dim>
					<dim>-1</dim>
				</port>
			</output>
		</layer>
		<layer id="24" name="__module.RRDB_trunk.0.rdb1/aten::cat/Concat_1" type="Concat" version="opset1">
			<data axis="1" />
			<input>
				<port id="0" precision="FP32">
					<dim>-1</dim>
					<dim>64</dim>
					<dim>-1</dim>
					<dim>-1</dim>
				</port>
				<port id="1" precision="FP32">
					<dim>-1</dim>
					<dim>32</dim>
					<dim>-1</dim>
					<dim>-1</dim>
				</port>
				<port id="2" precision="FP32">
					<dim>-1</dim>
					<dim>32</dim>
					<dim>-1</dim>
					<dim>-1</dim>
				</port>
			</input>
			<output>
				<port id="3" precision="FP32" names="100,input.9">
					<dim>-1</dim>
					<dim>128</dim>
					<dim>-1</dim>
					<dim>-1</dim>
				</port>
			</output>
		</layer>
		<layer id="25" name="self.RRDB_trunk.0.rdb1.conv3.weight_compressed" type="Const" version="opset1">
			<data element_type="f16" shape="32, 128, 3, 3" offset="95874" size="73728" />
			<output>
				<port id="0" precision="FP16" names="self.RRDB_trunk.0.rdb1.conv3.weight">
					<dim>32</dim>
					<dim>128</dim>
					<dim>3</dim>
					<dim>3</dim>
				</port>
			</output>
		</layer>
		<layer id="26" name="self.RRDB_trunk.0.rdb1.conv3.weight" type="Convert" version="opset1">
			<data destination_type="f32" />
			<rt_info>
				<attribute name="decompression" version="0" />
			</rt_info>
			<input>
				<port id="0" precision="FP16">
					<dim>32</dim>
					<dim>128</dim>
					<dim>3</dim>
					<dim>3</dim>
				</port>
			</input>
			<output>
				<port id="1" precision="FP32">
					<dim>32</dim>
					<dim>128</dim>
					<dim>3</dim>
					<dim>3</dim>
				</port>
			</output>
		</layer>
		<layer id="27" name="__module.RRDB_trunk.0.rdb1.conv3/aten::_convolution/Convolution" type="Convolution" version="opset1">
			<data strides="1, 1" dilations="1, 1" pads_begin="1, 1" pads_end="1, 1" auto_pad="explicit" />
			<input>
				<port id="0" precision="FP32">
					<dim>-1</dim>
					<dim>128</dim>
					<dim>-1</dim>
					<dim>-1</dim>
				</port>
				<port id="1" precision="FP32">
					<dim>32</dim>
					<dim>128</dim>
					<dim>3</dim>
					<dim>3</dim>
				</port>
			</input>
			<output>
				<port id="2" precision="FP32">
					<dim>-1</dim>
					<dim>32</dim>
					<dim>-1</dim>
					<dim>-1</dim>
				</port>
			</output>
		</layer>
		<layer id="28" name="__module.RRDB_trunk.0.rdb1.conv3/aten::_convolution/Reshape_compressed" type="Const" version="opset1">
			<data element_type="f16" shape="1, 32, 1, 1" offset="169602" size="64" />
			<output>
				<port id="0" precision="FP16">
					<dim>1</dim>
					<dim>32</dim>
					<dim>1</dim>
					<dim>1</dim>
				</port>
			</output>
		</layer>
		<layer id="29" name="__module.RRDB_trunk.0.rdb1.conv3/aten::_convolution/Reshape" type="Convert" version="opset1">
			<data destination_type="f32" />
			<rt_info>
				<attribute name="decompression" version="0" />
			</rt_info>
			<input>
				<port id="0" precision="FP16">
					<dim>1</dim>
					<dim>32</dim>
					<dim>1</dim>
					<dim>1</dim>
				</port>
			</input>
			<output>
				<port id="1" precision="FP32">
					<dim>1</dim>
					<dim>32</dim>
					<dim>1</dim>
					<dim>1</dim>
				</port>
			</output>
		</layer>
		<layer id="30" name="__module.RRDB_trunk.0.rdb1.conv3/aten::_convolution/Add" type="Add" version="opset1">
			<data auto_broadcast="numpy" />
			<input>
				<port id="0" precision="FP32">
					<dim>-1</dim>
					<dim>32</dim>
					<dim>-1</dim>
					<dim>-1</dim>
				</port>
				<port id="1" precision="FP32">
					<dim>1</dim>
					<dim>32</dim>
					<dim>1</dim>
					<dim>1</dim>
				</port>
			</input>
			<output>
				<port id="2" precision="FP32" names="107_1">
					<dim>-1</dim>
					<dim>32</dim>
					<dim>-1</dim>
					<dim>-1</dim>
				</port>
			</output>
		</layer>
		<layer id="31" name="__module.RRDB_trunk.0.rdb1.lrelu/aten::leaky_relu_/PRelu_2" type="PReLU" version="opset1">
			<input>
				<port id="0" precision="FP32">
					<dim>-1</dim>
					<dim>32</dim>
					<dim>-1</dim>
					<dim>-1</dim>
				</port>
				<port id="1" precision="FP32" />
			</input>
			<output>
				<port id="2" precision="FP32" names="107,input.11">
					<dim>-1</dim>
					<dim>32</dim>
					<dim>-1</dim>
					<dim>-1</dim>
				</port>
			</output>
		</layer>
		<layer id="32" name="__module.RRDB_trunk.0.rdb1/aten::cat/Concat_2" type="Concat" version="opset1">
			<data axis="1" />
			<input>
				<port id="0" precision="FP32">
					<dim>-1</dim>
					<dim>64</dim>
					<dim>-1</dim>
					<dim>-1</dim>
				</port>
				<port id="1" precision="FP32">
					<dim>-1</dim>
					<dim>32</dim>
					<dim>-1</dim>
					<dim>-1</dim>
				</port>
				<port id="2" precision="FP32">
					<dim>-1</dim>
					<dim>32</dim>
					<dim>-1</dim>
					<dim>-1</dim>
				</port>
				<port id="3" precision="FP32">
					<dim>-1</dim>
					<dim>32</dim>
					<dim>-1</dim>
					<dim>-1</dim>
				</port>
			</input>
			<output>
				<port id="4" precision="FP32" names="110,input.13">
					<dim>-1</dim>
					<dim>160</dim>
					<dim>-1</dim>
					<dim>-1</dim>
				</port>
			</output>
		</layer>
		<layer id="33" name="self.RRDB_trunk.0.rdb1.conv4.weight_compressed" type="Const" version="opset1">
			<data element_type="f16" shape="32, 160, 3, 3" offset="169666" size="92160" />
			<output>
				<port id="0" precision="FP16" names="self.RRDB_trunk.0.rdb1.conv4.weight">
					<dim>32</dim>
					<dim>160</dim>
					<dim>3</dim>
					<dim>3</dim>
				</port>
			</output>
		</layer>
		<layer id="34" name="self.RRDB_trunk.0.rdb1.conv4.weight" type="Convert" version="opset1">
			<data destination_type="f32" />
			<rt_info>
				<attribute name="decompression" version="0" />
			</rt_info>
			<input>
				<port id="0" precision="FP16">
					<dim>32</dim>
					<dim>160</dim>
					<dim>3</dim>
					<dim>3</dim>
				</port>
			</input>
			<output>
				<port id="1" precision="FP32">
					<dim>32</dim>
					<dim>160</dim>
					<dim>3</dim>
					<dim>3</dim>
				</port>
			</output>
		</layer>
		<layer id="35" name="__module.RRDB_trunk.0.rdb1.conv4/aten::_convolution/Convolution" type="Convolution" version="opset1">
			<data strides="1, 1" dilations="1, 1" pads_begin="1, 1" pads_end="1, 1" auto_pad="explicit" />
			<input>
				<port id="0" precision="FP32">
					<dim>-1</dim>
					<dim>160</dim>
					<dim>-1</dim>
					<dim>-1</dim>
				</port>
				<port id="1" precision="FP32">
					<dim>32</dim>
					<dim>160</dim>
					<dim>3</dim>
					<dim>3</dim>
				</port>
			</input>
			<output>
				<port id="2" precision="FP32">
					<dim>-1</dim>
					<dim>32</dim>
					<dim>-1</dim>
					<dim>-1</dim>
				</port>
			</output>
		</layer>
		<layer id="36" name="__module.RRDB_trunk.0.rdb1.conv4/aten::_convolution/Reshape_compressed" type="Const" version="opset1">
			<data element_type="f16" shape="1, 32, 1, 1" offset="261826" size="64" />
			<output>
				<port id="0" precision="FP16">
					<dim>1</dim>
					<dim>32</dim>
					<dim>1</dim>
					<dim>1</dim>
				</port>
			</output>
		</layer>
		<layer id="37" name="__module.RRDB_trunk.0.rdb1.conv4/aten::_convolution/Reshape" type="Convert" version="opset1">
			<data destination_type="f32" />
			<rt_info>
				<attribute name="decompression" version="0" />
			</rt_info>
			<input>
				<port id="0" precision="FP16">
					<dim>1</dim>
					<dim>32</dim>
					<dim>1</dim>
					<dim>1</dim>
				</port>
			</input>
			<output>
				<port id="1" precision="FP32">
					<dim>1</dim>
					<dim>32</dim>
					<dim>1</dim>
					<dim>1</dim>
				</port>
			</output>
		</layer>
		<layer id="38" name="__module.RRDB_trunk.0.rdb1.conv4/aten::_convolution/Add" type="Add" version="opset1">
			<data auto_broadcast="numpy" />
			<input>
				<port id="0" precision="FP32">
					<dim>-1</dim>
					<dim>32</dim>
					<dim>-1</dim>
					<dim>-1</dim>
				</port>
				<port id="1" precision="FP32">
					<dim>1</dim>
					<dim>32</dim>
					<dim>1</dim>
					<dim>1</dim>
				</port>
			</input>
			<output>
				<port id="2" precision="FP32" names="117_1">
					<dim>-1</dim>
					<dim>32</dim>
					<dim>-1</dim>
					<dim>-1</dim>
				</port>
			</output>
		</layer>
		<layer id="39" name="__module.RRDB_trunk.0.rdb1.lrelu/aten::leaky_relu_/PRelu_3" type="PReLU" version="opset1">
			<input>
				<port id="0" precision="FP32">
					<dim>-1</dim>
					<dim>32</dim>
					<dim>-1</dim>
					<dim>-1</dim>
				</port>
				<port id="1" precision="FP32" />
			</input>
			<output>
				<port id="2" precision="FP32" names="117,input.15">
					<dim>-1</dim>
					<dim>32</dim>
					<dim>-1</dim>
					<dim>-1</dim>
				</port>
			</output>
		</layer>
		<layer id="40" name="__module.RRDB_trunk.0.rdb1/aten::cat/Concat_3" type="Concat" version="opset1">
			<data axis="1" />
			<input>
				<port id="0" precision="FP32">
					<dim>-1</dim>
					<dim>64</dim>
					<dim>-1</dim>
					<dim>-1</dim>
				</port>
				<port id="1" precision="FP32">
					<dim>-1</dim>
					<dim>32</dim>
					<dim>-1</dim>
					<dim>-1</dim>
				</port>
				<port id="2" precision="FP32">
					<dim>-1</dim>
					<dim>32</dim>
					<dim>-1</dim>
					<dim>-1</dim>
				</port>
				<port id="3" precision="FP32">
					<dim>-1</dim>
					<dim>32</dim>
					<dim>-1</dim>
					<dim>-1</dim>
				</port>
				<port id="4" precision="FP32">
					<dim>-1</dim>
					<dim>32</dim>
					<dim>-1</dim>
					<dim>-1</dim>
				</port>
			</input>
			<output>
				<port id="5" precision="FP32" names="120,input.17">
					<dim>-1</dim>
					<dim>192</dim>
					<dim>-1</dim>
					<dim>-1</dim>
				</port>
			</output>
		</layer>
		<layer id="41" name="Multiply_34813_compressed" type="Const" version="opset1">
			<data element_type="f16" shape="64, 192, 3, 3" offset="261890" size="221184" />
			<output>
				<port id="0" precision="FP16">
					<dim>64</dim>
					<dim>192</dim>
					<dim>3</dim>
					<dim>3</dim>
				</port>
			</output>
		</layer>
		<layer id="42" name="Multiply_34813" type="Convert" version="opset1">
			<data destination_type="f32" />
			<rt_info>
				<attribute name="decompression" version="0" />
			</rt_info>
			<input>
				<port id="0" precision="FP16">
					<dim>64</dim>
					<dim>192</dim>
					<dim>3</dim>
					<dim>3</dim>
				</port>
			</input>
			<output>
				<port id="1" precision="FP32">
					<dim>64</dim>
					<dim>192</dim>
					<dim>3</dim>
					<dim>3</dim>
				</port>
			</output>
		</layer>
		<layer id="43" name="Multiply_34537" type="Convolution" version="opset1">
			<data strides="1, 1" dilations="1, 1" pads_begin="1, 1" pads_end="1, 1" auto_pad="explicit" />
			<input>
				<port id="0" precision="FP32">
					<dim>-1</dim>
					<dim>192</dim>
					<dim>-1</dim>
					<dim>-1</dim>
				</port>
				<port id="1" precision="FP32">
					<dim>64</dim>
					<dim>192</dim>
					<dim>3</dim>
					<dim>3</dim>
				</port>
			</input>
			<output>
				<port id="2" precision="FP32">
					<dim>-1</dim>
					<dim>64</dim>
					<dim>-1</dim>
					<dim>-1</dim>
				</port>
			</output>
		</layer>
		<layer id="44" name="Constant_34539_compressed" type="Const" version="opset1">
			<data element_type="f16" shape="1, 64, 1, 1" offset="483074" size="128" />
			<output>
				<port id="0" precision="FP16">
					<dim>1</dim>
					<dim>64</dim>
					<dim>1</dim>
					<dim>1</dim>
				</port>
			</output>
		</layer>
		<layer id="45" name="Constant_34539" type="Convert" version="opset1">
			<data destination_type="f32" />
			<rt_info>
				<attribute name="decompression" version="0" />
			</rt_info>
			<input>
				<port id="0" precision="FP16">
					<dim>1</dim>
					<dim>64</dim>
					<dim>1</dim>
					<dim>1</dim>
				</port>
			</input>
			<output>
				<port id="1" precision="FP32">
					<dim>1</dim>
					<dim>64</dim>
					<dim>1</dim>
					<dim>1</dim>
				</port>
			</output>
		</layer>
		<layer id="46" name="__module.RRDB_trunk.0.rdb1/aten::mul/Multiply" type="Add" version="opset1">
			<data auto_broadcast="numpy" />
			<input>
				<port id="0" precision="FP32">
					<dim>-1</dim>
					<dim>64</dim>
					<dim>-1</dim>
					<dim>-1</dim>
				</port>
				<port id="1" precision="FP32">
					<dim>1</dim>
					<dim>64</dim>
					<dim>1</dim>
					<dim>1</dim>
				</port>
			</input>
			<output>
				<port id="2" precision="FP32" names="128">
					<dim>-1</dim>
					<dim>64</dim>
					<dim>-1</dim>
					<dim>-1</dim>
				</port>
			</output>
		</layer>
		<layer id="47" name="__module.RRDB_trunk.0.rdb1/aten::add/Add" type="Add" version="opset1">
			<data auto_broadcast="numpy" />
			<input>
				<port id="0" precision="FP32">
					<dim>-1</dim>
					<dim>64</dim>
					<dim>-1</dim>
					<dim>-1</dim>
				</port>
				<port id="1" precision="FP32">
					<dim>-1</dim>
					<dim>64</dim>
					<dim>-1</dim>
					<dim>-1</dim>
				</port>
			</input>
			<output>
				<port id="2" precision="FP32" names="129,input.19">
					<dim>-1</dim>
					<dim>64</dim>
					<dim>-1</dim>
					<dim>-1</dim>
				</port>
			</output>
		</layer>
		<layer id="48" name="self.RRDB_trunk.0.rdb2.conv1.weight_compressed" type="Const" version="opset1">
			<data element_type="f16" shape="32, 64, 3, 3" offset="483202" size="36864" />
			<output>
				<port id="0" precision="FP16" names="self.RRDB_trunk.0.rdb2.conv1.weight">
					<dim>32</dim>
					<dim>64</dim>
					<dim>3</dim>
					<dim>3</dim>
				</port>
			</output>
		</layer>
		<layer id="49" name="self.RRDB_trunk.0.rdb2.conv1.weight" type="Convert" version="opset1">
			<data destination_type="f32" />
			<rt_info>
				<attribute name="decompression" version="0" />
			</rt_info>
			<input>
				<port id="0" precision="FP16">
					<dim>32</dim>
					<dim>64</dim>
					<dim>3</dim>
					<dim>3</dim>
				</port>
			</input>
			<output>
				<port id="1" precision="FP32">
					<dim>32</dim>
					<dim>64</dim>
					<dim>3</dim>
					<dim>3</dim>
				</port>
			</output>
		</layer>
		<layer id="50" name="__module.RRDB_trunk.0.rdb2.conv1/aten::_convolution/Convolution" type="Convolution" version="opset1">
			<data strides="1, 1" dilations="1, 1" pads_begin="1, 1" pads_end="1, 1" auto_pad="explicit" />
			<input>
				<port id="0" precision="FP32">
					<dim>-1</dim>
					<dim>64</dim>
					<dim>-1</dim>
					<dim>-1</dim>
				</port>
				<port id="1" precision="FP32">
					<dim>32</dim>
					<dim>64</dim>
					<dim>3</dim>
					<dim>3</dim>
				</port>
			</input>
			<output>
				<port id="2" precision="FP32">
					<dim>-1</dim>
					<dim>32</dim>
					<dim>-1</dim>
					<dim>-1</dim>
				</port>
			</output>
		</layer>
		<layer id="51" name="__module.RRDB_trunk.0.rdb2.conv1/aten::_convolution/Reshape_compressed" type="Const" version="opset1">
			<data element_type="f16" shape="1, 32, 1, 1" offset="520066" size="64" />
			<output>
				<port id="0" precision="FP16">
					<dim>1</dim>
					<dim>32</dim>
					<dim>1</dim>
					<dim>1</dim>
				</port>
			</output>
		</layer>
		<layer id="52" name="__module.RRDB_trunk.0.rdb2.conv1/aten::_convolution/Reshape" type="Convert" version="opset1">
			<data destination_type="f32" />
			<rt_info>
				<attribute name="decompression" version="0" />
			</rt_info>
			<input>
				<port id="0" precision="FP16">
					<dim>1</dim>
					<dim>32</dim>
					<dim>1</dim>
					<dim>1</dim>
				</port>
			</input>
			<output>
				<port id="1" precision="FP32">
					<dim>1</dim>
					<dim>32</dim>
					<dim>1</dim>
					<dim>1</dim>
				</port>
			</output>
		</layer>
		<layer id="53" name="__module.RRDB_trunk.0.rdb2.conv1/aten::_convolution/Add" type="Add" version="opset1">
			<data auto_broadcast="numpy" />
			<input>
				<port id="0" precision="FP32">
					<dim>-1</dim>
					<dim>32</dim>
					<dim>-1</dim>
					<dim>-1</dim>
				</port>
				<port id="1" precision="FP32">
					<dim>1</dim>
					<dim>32</dim>
					<dim>1</dim>
					<dim>1</dim>
				</port>
			</input>
			<output>
				<port id="2" precision="FP32" names="142_1">
					<dim>-1</dim>
					<dim>32</dim>
					<dim>-1</dim>
					<dim>-1</dim>
				</port>
			</output>
		</layer>
		<layer id="54" name="__module.RRDB_trunk.0.rdb2.lrelu/aten::leaky_relu_/PRelu" type="PReLU" version="opset1">
			<input>
				<port id="0" precision="FP32">
					<dim>-1</dim>
					<dim>32</dim>
					<dim>-1</dim>
					<dim>-1</dim>
				</port>
				<port id="1" precision="FP32" />
			</input>
			<output>
				<port id="2" precision="FP32" names="142,input.21">
					<dim>-1</dim>
					<dim>32</dim>
					<dim>-1</dim>
					<dim>-1</dim>
				</port>
			</output>
		</layer>
		<layer id="55" name="__module.RRDB_trunk.0.rdb2/aten::cat/Concat" type="Concat" version="opset1">
			<data axis="1" />
			<input>
				<port id="0" precision="FP32">
					<dim>-1</dim>
					<dim>64</dim>
					<dim>-1</dim>
					<dim>-1</dim>
				</port>
				<port id="1" precision="FP32">
					<dim>-1</dim>
					<dim>32</dim>
					<dim>-1</dim>
					<dim>-1</dim>
				</port>
			</input>
			<output>
				<port id="2" precision="FP32" names="145,input.23">
					<dim>-1</dim>
					<dim>96</dim>
					<dim>-1</dim>
					<dim>-1</dim>
				</port>
			</output>
		</layer>
		<layer id="56" name="self.RRDB_trunk.0.rdb2.conv2.weight_compressed" type="Const" version="opset1">
			<data element_type="f16" shape="32, 96, 3, 3" offset="520130" size="55296" />
			<output>
				<port id="0" precision="FP16" names="self.RRDB_trunk.0.rdb2.conv2.weight">
					<dim>32</dim>
					<dim>96</dim>
					<dim>3</dim>
					<dim>3</dim>
				</port>
			</output>
		</layer>
		<layer id="57" name="self.RRDB_trunk.0.rdb2.conv2.weight" type="Convert" version="opset1">
			<data destination_type="f32" />
			<rt_info>
				<attribute name="decompression" version="0" />
			</rt_info>
			<input>
				<port id="0" precision="FP16">
					<dim>32</dim>
					<dim>96</dim>
					<dim>3</dim>
					<dim>3</dim>
				</port>
			</input>
			<output>
				<port id="1" precision="FP32">
					<dim>32</dim>
					<dim>96</dim>
					<dim>3</dim>
					<dim>3</dim>
				</port>
			</output>
		</layer>
		<layer id="58" name="__module.RRDB_trunk.0.rdb2.conv2/aten::_convolution/Convolution" type="Convolution" version="opset1">
			<data strides="1, 1" dilations="1, 1" pads_begin="1, 1" pads_end="1, 1" auto_pad="explicit" />
			<input>
				<port id="0" precision="FP32">
					<dim>-1</dim>
					<dim>96</dim>
					<dim>-1</dim>
					<dim>-1</dim>
				</port>
				<port id="1" precision="FP32">
					<dim>32</dim>
					<dim>96</dim>
					<dim>3</dim>
					<dim>3</dim>
				</port>
			</input>
			<output>
				<port id="2" precision="FP32">
					<dim>-1</dim>
					<dim>32</dim>
					<dim>-1</dim>
					<dim>-1</dim>
				</port>
			</output>
		</layer>
		<layer id="59" name="__module.RRDB_trunk.0.rdb2.conv2/aten::_convolution/Reshape_compressed" type="Const" version="opset1">
			<data element_type="f16" shape="1, 32, 1, 1" offset="575426" size="64" />
			<output>
				<port id="0" precision="FP16">
					<dim>1</dim>
					<dim>32</dim>
					<dim>1</dim>
					<dim>1</dim>
				</port>
			</output>
		</layer>
		<layer id="60" name="__module.RRDB_trunk.0.rdb2.conv2/aten::_convolution/Reshape" type="Convert" version="opset1">
			<data destination_type="f32" />
			<rt_info>
				<attribute name="decompression" version="0" />
			</rt_info>
			<input>
				<port id="0" precision="FP16">
					<dim>1</dim>
					<dim>32</dim>
					<dim>1</dim>
					<dim>1</dim>
				</port>
			</input>
			<output>
				<port id="1" precision="FP32">
					<dim>1</dim>
					<dim>32</dim>
					<dim>1</dim>
					<dim>1</dim>
				</port>
			</output>
		</layer>
		<layer id="61" name="__module.RRDB_trunk.0.rdb2.conv2/aten::_convolution/Add" type="Add" version="opset1">
			<data auto_broadcast="numpy" />
			<input>
				<port id="0" precision="FP32">
					<dim>-1</dim>
					<dim>32</dim>
					<dim>-1</dim>
					<dim>-1</dim>
				</port>
				<port id="1" precision="FP32">
					<dim>1</dim>
					<dim>32</dim>
					<dim>1</dim>
					<dim>1</dim>
				</port>
			</input>
			<output>
				<port id="2" precision="FP32" names="152_1">
					<dim>-1</dim>
					<dim>32</dim>
					<dim>-1</dim>
					<dim>-1</dim>
				</port>
			</output>
		</layer>
		<layer id="62" name="__module.RRDB_trunk.0.rdb2.lrelu/aten::leaky_relu_/PRelu_1" type="PReLU" version="opset1">
			<input>
				<port id="0" precision="FP32">
					<dim>-1</dim>
					<dim>32</dim>
					<dim>-1</dim>
					<dim>-1</dim>
				</port>
				<port id="1" precision="FP32" />
			</input>
			<output>
				<port id="2" precision="FP32" names="152,input.25">
					<dim>-1</dim>
					<dim>32</dim>
					<dim>-1</dim>
					<dim>-1</dim>
				</port>
			</output>
		</layer>
		<layer id="63" name="__module.RRDB_trunk.0.rdb2/aten::cat/Concat_1" type="Concat" version="opset1">
			<data axis="1" />
			<input>
				<port id="0" precision="FP32">
					<dim>-1</dim>
					<dim>64</dim>
					<dim>-1</dim>
					<dim>-1</dim>
				</port>
				<port id="1" precision="FP32">
					<dim>-1</dim>
					<dim>32</dim>
					<dim>-1</dim>
					<dim>-1</dim>
				</port>
				<port id="2" precision="FP32">
					<dim>-1</dim>
					<dim>32</dim>
					<dim>-1</dim>
					<dim>-1</dim>
				</port>
			</input>
			<output>
				<port id="3" precision="FP32" names="155,input.27">
					<dim>-1</dim>
					<dim>128</dim>
					<dim>-1</dim>
					<dim>-1</dim>
				</port>
			</output>
		</layer>
		<layer id="64" name="self.RRDB_trunk.0.rdb2.conv3.weight_compressed" type="Const" version="opset1">
			<data element_type="f16" shape="32, 128, 3, 3" offset="575490" size="73728" />
			<output>
				<port id="0" precision="FP16" names="self.RRDB_trunk.0.rdb2.conv3.weight">
					<dim>32</dim>
					<dim>128</dim>
					<dim>3</dim>
					<dim>3</dim>
				</port>
			</output>
		</layer>
		<layer id="65" name="self.RRDB_trunk.0.rdb2.conv3.weight" type="Convert" version="opset1">
			<data destination_type="f32" />
			<rt_info>
				<attribute name="decompression" version="0" />
			</rt_info>
			<input>
				<port id="0" precision="FP16">
					<dim>32</dim>
					<dim>128</dim>
					<dim>3</dim>
					<dim>3</dim>
				</port>
			</input>
			<output>
				<port id="1" precision="FP32">
					<dim>32</dim>
					<dim>128</dim>
					<dim>3</dim>
					<dim>3</dim>
				</port>
			</output>
		</layer>
		<layer id="66" name="__module.RRDB_trunk.0.rdb2.conv3/aten::_convolution/Convolution" type="Convolution" version="opset1">
			<data strides="1, 1" dilations="1, 1" pads_begin="1, 1" pads_end="1, 1" auto_pad="explicit" />
			<input>
				<port id="0" precision="FP32">
					<dim>-1</dim>
					<dim>128</dim>
					<dim>-1</dim>
					<dim>-1</dim>
				</port>
				<port id="1" precision="FP32">
					<dim>32</dim>
					<dim>128</dim>
					<dim>3</dim>
					<dim>3</dim>
				</port>
			</input>
			<output>
				<port id="2" precision="FP32">
					<dim>-1</dim>
					<dim>32</dim>
					<dim>-1</dim>
					<dim>-1</dim>
				</port>
			</output>
		</layer>
		<layer id="67" name="__module.RRDB_trunk.0.rdb2.conv3/aten::_convolution/Reshape_compressed" type="Const" version="opset1">
			<data element_type="f16" shape="1, 32, 1, 1" offset="649218" size="64" />
			<output>
				<port id="0" precision="FP16">
					<dim>1</dim>
					<dim>32</dim>
					<dim>1</dim>
					<dim>1</dim>
				</port>
			</output>
		</layer>
		<layer id="68" name="__module.RRDB_trunk.0.rdb2.conv3/aten::_convolution/Reshape" type="Convert" version="opset1">
			<data destination_type="f32" />
			<rt_info>
				<attribute name="decompression" version="0" />
			</rt_info>
			<input>
				<port id="0" precision="FP16">
					<dim>1</dim>
					<dim>32</dim>
					<dim>1</dim>
					<dim>1</dim>
				</port>
			</input>
			<output>
				<port id="1" precision="FP32">
					<dim>1</dim>
					<dim>32</dim>
					<dim>1</dim>
					<dim>1</dim>
				</port>
			</output>
		</layer>
		<layer id="69" name="__module.RRDB_trunk.0.rdb2.conv3/aten::_convolution/Add" type="Add" version="opset1">
			<data auto_broadcast="numpy" />
			<input>
				<port id="0" precision="FP32">
					<dim>-1</dim>
					<dim>32</dim>
					<dim>-1</dim>
					<dim>-1</dim>
				</port>
				<port id="1" precision="FP32">
					<dim>1</dim>
					<dim>32</dim>
					<dim>1</dim>
					<dim>1</dim>
				</port>
			</input>
			<output>
				<port id="2" precision="FP32" names="162_1">
					<dim>-1</dim>
					<dim>32</dim>
					<dim>-1</dim>
					<dim>-1</dim>
				</port>
			</output>
		</layer>
		<layer id="70" name="__module.RRDB_trunk.0.rdb2.lrelu/aten::leaky_relu_/PRelu_2" type="PReLU" version="opset1">
			<input>
				<port id="0" precision="FP32">
					<dim>-1</dim>
					<dim>32</dim>
					<dim>-1</dim>
					<dim>-1</dim>
				</port>
				<port id="1" precision="FP32" />
			</input>
			<output>
				<port id="2" precision="FP32" names="162,input.29">
					<dim>-1</dim>
					<dim>32</dim>
					<dim>-1</dim>
					<dim>-1</dim>
				</port>
			</output>
		</layer>
		<layer id="71" name="__module.RRDB_trunk.0.rdb2/aten::cat/Concat_2" type="Concat" version="opset1">
			<data axis="1" />
			<input>
				<port id="0" precision="FP32">
					<dim>-1</dim>
					<dim>64</dim>
					<dim>-1</dim>
					<dim>-1</dim>
				</port>
				<port id="1" precision="FP32">
					<dim>-1</dim>
					<dim>32</dim>
					<dim>-1</dim>
					<dim>-1</dim>
				</port>
				<port id="2" precision="FP32">
					<dim>-1</dim>
					<dim>32</dim>
					<dim>-1</dim>
					<dim>-1</dim>
				</port>
				<port id="3" precision="FP32">
					<dim>-1</dim>
					<dim>32</dim>
					<dim>-1</dim>
					<dim>-1</dim>
				</port>
			</input>
			<output>
				<port id="4" precision="FP32" names="165,input.31">
					<dim>-1</dim>
					<dim>160</dim>
					<dim>-1</dim>
					<dim>-1</dim>
				</port>
			</output>
		</layer>
		<layer id="72" name="self.RRDB_trunk.0.rdb2.conv4.weight_compressed" type="Const" version="opset1">
			<data element_type="f16" shape="32, 160, 3, 3" offset="649282" size="92160" />
			<output>
				<port id="0" precision="FP16" names="self.RRDB_trunk.0.rdb2.conv4.weight">
					<dim>32</dim>
					<dim>160</dim>
					<dim>3</dim>
					<dim>3</dim>
				</port>
			</output>
		</layer>
		<layer id="73" name="self.RRDB_trunk.0.rdb2.conv4.weight" type="Convert" version="opset1">
			<data destination_type="f32" />
			<rt_info>
				<attribute name="decompression" version="0" />
			</rt_info>
			<input>
				<port id="0" precision="FP16">
					<dim>32</dim>
					<dim>160</dim>
					<dim>3</dim>
					<dim>3</dim>
				</port>
			</input>
			<output>
				<port id="1" precision="FP32">
					<dim>32</dim>
					<dim>160</dim>
					<dim>3</dim>
					<dim>3</dim>
				</port>
			</output>
		</layer>
		<layer id="74" name="__module.RRDB_trunk.0.rdb2.conv4/aten::_convolution/Convolution" type="Convolution" version="opset1">
			<data strides="1, 1" dilations="1, 1" pads_begin="1, 1" pads_end="1, 1" auto_pad="explicit" />
			<input>
				<port id="0" precision="FP32">
					<dim>-1</dim>
					<dim>160</dim>
					<dim>-1</dim>
					<dim>-1</dim>
				</port>
				<port id="1" precision="FP32">
					<dim>32</dim>
					<dim>160</dim>
					<dim>3</dim>
					<dim>3</dim>
				</port>
			</input>
			<output>
				<port id="2" precision="FP32">
					<dim>-1</dim>
					<dim>32</dim>
					<dim>-1</dim>
					<dim>-1</dim>
				</port>
			</output>
		</layer>
		<layer id="75" name="__module.RRDB_trunk.0.rdb2.conv4/aten::_convolution/Reshape_compressed" type="Const" version="opset1">
			<data element_type="f16" shape="1, 32, 1, 1" offset="741442" size="64" />
			<output>
				<port id="0" precision="FP16">
					<dim>1</dim>
					<dim>32</dim>
					<dim>1</dim>
					<dim>1</dim>
				</port>
			</output>
		</layer>
		<layer id="76" name="__module.RRDB_trunk.0.rdb2.conv4/aten::_convolution/Reshape" type="Convert" version="opset1">
			<data destination_type="f32" />
			<rt_info>
				<attribute name="decompression" version="0" />
			</rt_info>
			<input>
				<port id="0" precision="FP16">
					<dim>1</dim>
					<dim>32</dim>
					<dim>1</dim>
					<dim>1</dim>
				</port>
			</input>
			<output>
				<port id="1" precision="FP32">
					<dim>1</dim>
					<dim>32</dim>
					<dim>1</dim>
					<dim>1</dim>
				</port>
			</output>
		</layer>
		<layer id="77" name="__module.RRDB_trunk.0.rdb2.conv4/aten::_convolution/Add" type="Add" version="opset1">
			<data auto_broadcast="numpy" />
			<input>
				<port id="0" precision="FP32">
					<dim>-1</dim>
					<dim>32</dim>
					<dim>-1</dim>
					<dim>-1</dim>
				</port>
				<port id="1" precision="FP32">
					<dim>1</dim>
					<dim>32</dim>
					<dim>1</dim>
					<dim>1</dim>
				</port>
			</input>
			<output>
				<port id="2" precision="FP32" names="172_1">
					<dim>-1</dim>
					<dim>32</dim>
					<dim>-1</dim>
					<dim>-1</dim>
				</port>
			</output>
		</layer>
		<layer id="78" name="__module.RRDB_trunk.0.rdb2.lrelu/aten::leaky_relu_/PRelu_3" type="PReLU" version="opset1">
			<input>
				<port id="0" precision="FP32">
					<dim>-1</dim>
					<dim>32</dim>
					<dim>-1</dim>
					<dim>-1</dim>
				</port>
				<port id="1" precision="FP32" />
			</input>
			<output>
				<port id="2" precision="FP32" names="172,input.33">
					<dim>-1</dim>
					<dim>32</dim>
					<dim>-1</dim>
					<dim>-1</dim>
				</port>
			</output>
		</layer>
		<layer id="79" name="__module.RRDB_trunk.0.rdb2/aten::cat/Concat_3" type="Concat" version="opset1">
			<data axis="1" />
			<input>
				<port id="0" precision="FP32">
					<dim>-1</dim>
					<dim>64</dim>
					<dim>-1</dim>
					<dim>-1</dim>
				</port>
				<port id="1" precision="FP32">
					<dim>-1</dim>
					<dim>32</dim>
					<dim>-1</dim>
					<dim>-1</dim>
				</port>
				<port id="2" precision="FP32">
					<dim>-1</dim>
					<dim>32</dim>
					<dim>-1</dim>
					<dim>-1</dim>
				</port>
				<port id="3" precision="FP32">
					<dim>-1</dim>
					<dim>32</dim>
					<dim>-1</dim>
					<dim>-1</dim>
				</port>
				<port id="4" precision="FP32">
					<dim>-1</dim>
					<dim>32</dim>
					<dim>-1</dim>
					<dim>-1</dim>
				</port>
			</input>
			<output>
				<port id="5" precision="FP32" names="175,input.35">
					<dim>-1</dim>
					<dim>192</dim>
					<dim>-1</dim>
					<dim>-1</dim>
				</port>
			</output>
		</layer>
		<layer id="80" name="Multiply_34815_compressed" type="Const" version="opset1">
			<data element_type="f16" shape="64, 192, 3, 3" offset="741506" size="221184" />
			<output>
				<port id="0" precision="FP16">
					<dim>64</dim>
					<dim>192</dim>
					<dim>3</dim>
					<dim>3</dim>
				</port>
			</output>
		</layer>
		<layer id="81" name="Multiply_34815" type="Convert" version="opset1">
			<data destination_type="f32" />
			<rt_info>
				<attribute name="decompression" version="0" />
			</rt_info>
			<input>
				<port id="0" precision="FP16">
					<dim>64</dim>
					<dim>192</dim>
					<dim>3</dim>
					<dim>3</dim>
				</port>
			</input>
			<output>
				<port id="1" precision="FP32">
					<dim>64</dim>
					<dim>192</dim>
					<dim>3</dim>
					<dim>3</dim>
				</port>
			</output>
		</layer>
		<layer id="82" name="Multiply_34541" type="Convolution" version="opset1">
			<data strides="1, 1" dilations="1, 1" pads_begin="1, 1" pads_end="1, 1" auto_pad="explicit" />
			<input>
				<port id="0" precision="FP32">
					<dim>-1</dim>
					<dim>192</dim>
					<dim>-1</dim>
					<dim>-1</dim>
				</port>
				<port id="1" precision="FP32">
					<dim>64</dim>
					<dim>192</dim>
					<dim>3</dim>
					<dim>3</dim>
				</port>
			</input>
			<output>
				<port id="2" precision="FP32">
					<dim>-1</dim>
					<dim>64</dim>
					<dim>-1</dim>
					<dim>-1</dim>
				</port>
			</output>
		</layer>
		<layer id="83" name="Constant_34543_compressed" type="Const" version="opset1">
			<data element_type="f16" shape="1, 64, 1, 1" offset="962690" size="128" />
			<output>
				<port id="0" precision="FP16">
					<dim>1</dim>
					<dim>64</dim>
					<dim>1</dim>
					<dim>1</dim>
				</port>
			</output>
		</layer>
		<layer id="84" name="Constant_34543" type="Convert" version="opset1">
			<data destination_type="f32" />
			<rt_info>
				<attribute name="decompression" version="0" />
			</rt_info>
			<input>
				<port id="0" precision="FP16">
					<dim>1</dim>
					<dim>64</dim>
					<dim>1</dim>
					<dim>1</dim>
				</port>
			</input>
			<output>
				<port id="1" precision="FP32">
					<dim>1</dim>
					<dim>64</dim>
					<dim>1</dim>
					<dim>1</dim>
				</port>
			</output>
		</layer>
		<layer id="85" name="__module.RRDB_trunk.0.rdb2/aten::mul/Multiply" type="Add" version="opset1">
			<data auto_broadcast="numpy" />
			<input>
				<port id="0" precision="FP32">
					<dim>-1</dim>
					<dim>64</dim>
					<dim>-1</dim>
					<dim>-1</dim>
				</port>
				<port id="1" precision="FP32">
					<dim>1</dim>
					<dim>64</dim>
					<dim>1</dim>
					<dim>1</dim>
				</port>
			</input>
			<output>
				<port id="2" precision="FP32" names="183">
					<dim>-1</dim>
					<dim>64</dim>
					<dim>-1</dim>
					<dim>-1</dim>
				</port>
			</output>
		</layer>
		<layer id="86" name="__module.RRDB_trunk.0.rdb2/aten::add/Add" type="Add" version="opset1">
			<data auto_broadcast="numpy" />
			<input>
				<port id="0" precision="FP32">
					<dim>-1</dim>
					<dim>64</dim>
					<dim>-1</dim>
					<dim>-1</dim>
				</port>
				<port id="1" precision="FP32">
					<dim>-1</dim>
					<dim>64</dim>
					<dim>-1</dim>
					<dim>-1</dim>
				</port>
			</input>
			<output>
				<port id="2" precision="FP32" names="184,input.37">
					<dim>-1</dim>
					<dim>64</dim>
					<dim>-1</dim>
					<dim>-1</dim>
				</port>
			</output>
		</layer>
		<layer id="87" name="self.RRDB_trunk.0.rdb3.conv1.weight_compressed" type="Const" version="opset1">
			<data element_type="f16" shape="32, 64, 3, 3" offset="962818" size="36864" />
			<output>
				<port id="0" precision="FP16" names="self.RRDB_trunk.0.rdb3.conv1.weight">
					<dim>32</dim>
					<dim>64</dim>
					<dim>3</dim>
					<dim>3</dim>
				</port>
			</output>
		</layer>
		<layer id="88" name="self.RRDB_trunk.0.rdb3.conv1.weight" type="Convert" version="opset1">
			<data destination_type="f32" />
			<rt_info>
				<attribute name="decompression" version="0" />
			</rt_info>
			<input>
				<port id="0" precision="FP16">
					<dim>32</dim>
					<dim>64</dim>
					<dim>3</dim>
					<dim>3</dim>
				</port>
			</input>
			<output>
				<port id="1" precision="FP32">
					<dim>32</dim>
					<dim>64</dim>
					<dim>3</dim>
					<dim>3</dim>
				</port>
			</output>
		</layer>
		<layer id="89" name="__module.RRDB_trunk.0.rdb3.conv1/aten::_convolution/Convolution" type="Convolution" version="opset1">
			<data strides="1, 1" dilations="1, 1" pads_begin="1, 1" pads_end="1, 1" auto_pad="explicit" />
			<input>
				<port id="0" precision="FP32">
					<dim>-1</dim>
					<dim>64</dim>
					<dim>-1</dim>
					<dim>-1</dim>
				</port>
				<port id="1" precision="FP32">
					<dim>32</dim>
					<dim>64</dim>
					<dim>3</dim>
					<dim>3</dim>
				</port>
			</input>
			<output>
				<port id="2" precision="FP32">
					<dim>-1</dim>
					<dim>32</dim>
					<dim>-1</dim>
					<dim>-1</dim>
				</port>
			</output>
		</layer>
		<layer id="90" name="__module.RRDB_trunk.0.rdb3.conv1/aten::_convolution/Reshape_compressed" type="Const" version="opset1">
			<data element_type="f16" shape="1, 32, 1, 1" offset="999682" size="64" />
			<output>
				<port id="0" precision="FP16">
					<dim>1</dim>
					<dim>32</dim>
					<dim>1</dim>
					<dim>1</dim>
				</port>
			</output>
		</layer>
		<layer id="91" name="__module.RRDB_trunk.0.rdb3.conv1/aten::_convolution/Reshape" type="Convert" version="opset1">
			<data destination_type="f32" />
			<rt_info>
				<attribute name="decompression" version="0" />
			</rt_info>
			<input>
				<port id="0" precision="FP16">
					<dim>1</dim>
					<dim>32</dim>
					<dim>1</dim>
					<dim>1</dim>
				</port>
			</input>
			<output>
				<port id="1" precision="FP32">
					<dim>1</dim>
					<dim>32</dim>
					<dim>1</dim>
					<dim>1</dim>
				</port>
			</output>
		</layer>
		<layer id="92" name="__module.RRDB_trunk.0.rdb3.conv1/aten::_convolution/Add" type="Add" version="opset1">
			<data auto_broadcast="numpy" />
			<input>
				<port id="0" precision="FP32">
					<dim>-1</dim>
					<dim>32</dim>
					<dim>-1</dim>
					<dim>-1</dim>
				</port>
				<port id="1" precision="FP32">
					<dim>1</dim>
					<dim>32</dim>
					<dim>1</dim>
					<dim>1</dim>
				</port>
			</input>
			<output>
				<port id="2" precision="FP32" names="197_1">
					<dim>-1</dim>
					<dim>32</dim>
					<dim>-1</dim>
					<dim>-1</dim>
				</port>
			</output>
		</layer>
		<layer id="93" name="__module.RRDB_trunk.0.rdb3.lrelu/aten::leaky_relu_/PRelu" type="PReLU" version="opset1">
			<input>
				<port id="0" precision="FP32">
					<dim>-1</dim>
					<dim>32</dim>
					<dim>-1</dim>
					<dim>-1</dim>
				</port>
				<port id="1" precision="FP32" />
			</input>
			<output>
				<port id="2" precision="FP32" names="197,input.39">
					<dim>-1</dim>
					<dim>32</dim>
					<dim>-1</dim>
					<dim>-1</dim>
				</port>
			</output>
		</layer>
		<layer id="94" name="__module.RRDB_trunk.0.rdb3/aten::cat/Concat" type="Concat" version="opset1">
			<data axis="1" />
			<input>
				<port id="0" precision="FP32">
					<dim>-1</dim>
					<dim>64</dim>
					<dim>-1</dim>
					<dim>-1</dim>
				</port>
				<port id="1" precision="FP32">
					<dim>-1</dim>
					<dim>32</dim>
					<dim>-1</dim>
					<dim>-1</dim>
				</port>
			</input>
			<output>
				<port id="2" precision="FP32" names="200,input.41">
					<dim>-1</dim>
					<dim>96</dim>
					<dim>-1</dim>
					<dim>-1</dim>
				</port>
			</output>
		</layer>
		<layer id="95" name="self.RRDB_trunk.0.rdb3.conv2.weight_compressed" type="Const" version="opset1">
			<data element_type="f16" shape="32, 96, 3, 3" offset="999746" size="55296" />
			<output>
				<port id="0" precision="FP16" names="self.RRDB_trunk.0.rdb3.conv2.weight">
					<dim>32</dim>
					<dim>96</dim>
					<dim>3</dim>
					<dim>3</dim>
				</port>
			</output>
		</layer>
		<layer id="96" name="self.RRDB_trunk.0.rdb3.conv2.weight" type="Convert" version="opset1">
			<data destination_type="f32" />
			<rt_info>
				<attribute name="decompression" version="0" />
			</rt_info>
			<input>
				<port id="0" precision="FP16">
					<dim>32</dim>
					<dim>96</dim>
					<dim>3</dim>
					<dim>3</dim>
				</port>
			</input>
			<output>
				<port id="1" precision="FP32">
					<dim>32</dim>
					<dim>96</dim>
					<dim>3</dim>
					<dim>3</dim>
				</port>
			</output>
		</layer>
		<layer id="97" name="__module.RRDB_trunk.0.rdb3.conv2/aten::_convolution/Convolution" type="Convolution" version="opset1">
			<data strides="1, 1" dilations="1, 1" pads_begin="1, 1" pads_end="1, 1" auto_pad="explicit" />
			<input>
				<port id="0" precision="FP32">
					<dim>-1</dim>
					<dim>96</dim>
					<dim>-1</dim>
					<dim>-1</dim>
				</port>
				<port id="1" precision="FP32">
					<dim>32</dim>
					<dim>96</dim>
					<dim>3</dim>
					<dim>3</dim>
				</port>
			</input>
			<output>
				<port id="2" precision="FP32">
					<dim>-1</dim>
					<dim>32</dim>
					<dim>-1</dim>
					<dim>-1</dim>
				</port>
			</output>
		</layer>
		<layer id="98" name="__module.RRDB_trunk.0.rdb3.conv2/aten::_convolution/Reshape_compressed" type="Const" version="opset1">
			<data element_type="f16" shape="1, 32, 1, 1" offset="1055042" size="64" />
			<output>
				<port id="0" precision="FP16">
					<dim>1</dim>
					<dim>32</dim>
					<dim>1</dim>
					<dim>1</dim>
				</port>
			</output>
		</layer>
		<layer id="99" name="__module.RRDB_trunk.0.rdb3.conv2/aten::_convolution/Reshape" type="Convert" version="opset1">
			<data destination_type="f32" />
			<rt_info>
				<attribute name="decompression" version="0" />
			</rt_info>
			<input>
				<port id="0" precision="FP16">
					<dim>1</dim>
					<dim>32</dim>
					<dim>1</dim>
					<dim>1</dim>
				</port>
			</input>
			<output>
				<port id="1" precision="FP32">
					<dim>1</dim>
					<dim>32</dim>
					<dim>1</dim>
					<dim>1</dim>
				</port>
			</output>
		</layer>
		<layer id="100" name="__module.RRDB_trunk.0.rdb3.conv2/aten::_convolution/Add" type="Add" version="opset1">
			<data auto_broadcast="numpy" />
			<input>
				<port id="0" precision="FP32">
					<dim>-1</dim>
					<dim>32</dim>
					<dim>-1</dim>
					<dim>-1</dim>
				</port>
				<port id="1" precision="FP32">
					<dim>1</dim>
					<dim>32</dim>
					<dim>1</dim>
					<dim>1</dim>
				</port>
			</input>
			<output>
				<port id="2" precision="FP32" names="207_1">
					<dim>-1</dim>
					<dim>32</dim>
					<dim>-1</dim>
					<dim>-1</dim>
				</port>
			</output>
		</layer>
		<layer id="101" name="__module.RRDB_trunk.0.rdb3.lrelu/aten::leaky_relu_/PRelu_1" type="PReLU" version="opset1">
			<input>
				<port id="0" precision="FP32">
					<dim>-1</dim>
					<dim>32</dim>
					<dim>-1</dim>
					<dim>-1</dim>
				</port>
				<port id="1" precision="FP32" />
			</input>
			<output>
				<port id="2" precision="FP32" names="207,input.43">
					<dim>-1</dim>
					<dim>32</dim>
					<dim>-1</dim>
					<dim>-1</dim>
				</port>
			</output>
		</layer>
		<layer id="102" name="__module.RRDB_trunk.0.rdb3/aten::cat/Concat_1" type="Concat" version="opset1">
			<data axis="1" />
			<input>
				<port id="0" precision="FP32">
					<dim>-1</dim>
					<dim>64</dim>
					<dim>-1</dim>
					<dim>-1</dim>
				</port>
				<port id="1" precision="FP32">
					<dim>-1</dim>
					<dim>32</dim>
					<dim>-1</dim>
					<dim>-1</dim>
				</port>
				<port id="2" precision="FP32">
					<dim>-1</dim>
					<dim>32</dim>
					<dim>-1</dim>
					<dim>-1</dim>
				</port>
			</input>
			<output>
				<port id="3" precision="FP32" names="210,input.45">
					<dim>-1</dim>
					<dim>128</dim>
					<dim>-1</dim>
					<dim>-1</dim>
				</port>
			</output>
		</layer>
		<layer id="103" name="self.RRDB_trunk.0.rdb3.conv3.weight_compressed" type="Const" version="opset1">
			<data element_type="f16" shape="32, 128, 3, 3" offset="1055106" size="73728" />
			<output>
				<port id="0" precision="FP16" names="self.RRDB_trunk.0.rdb3.conv3.weight">
					<dim>32</dim>
					<dim>128</dim>
					<dim>3</dim>
					<dim>3</dim>
				</port>
			</output>
		</layer>
		<layer id="104" name="self.RRDB_trunk.0.rdb3.conv3.weight" type="Convert" version="opset1">
			<data destination_type="f32" />
			<rt_info>
				<attribute name="decompression" version="0" />
			</rt_info>
			<input>
				<port id="0" precision="FP16">
					<dim>32</dim>
					<dim>128</dim>
					<dim>3</dim>
					<dim>3</dim>
				</port>
			</input>
			<output>
				<port id="1" precision="FP32">
					<dim>32</dim>
					<dim>128</dim>
					<dim>3</dim>
					<dim>3</dim>
				</port>
			</output>
		</layer>
		<layer id="105" name="__module.RRDB_trunk.0.rdb3.conv3/aten::_convolution/Convolution" type="Convolution" version="opset1">
			<data strides="1, 1" dilations="1, 1" pads_begin="1, 1" pads_end="1, 1" auto_pad="explicit" />
			<input>
				<port id="0" precision="FP32">
					<dim>-1</dim>
					<dim>128</dim>
					<dim>-1</dim>
					<dim>-1</dim>
				</port>
				<port id="1" precision="FP32">
					<dim>32</dim>
					<dim>128</dim>
					<dim>3</dim>
					<dim>3</dim>
				</port>
			</input>
			<output>
				<port id="2" precision="FP32">
					<dim>-1</dim>
					<dim>32</dim>
					<dim>-1</dim>
					<dim>-1</dim>
				</port>
			</output>
		</layer>
		<layer id="106" name="__module.RRDB_trunk.0.rdb3.conv3/aten::_convolution/Reshape_compressed" type="Const" version="opset1">
			<data element_type="f16" shape="1, 32, 1, 1" offset="1128834" size="64" />
			<output>
				<port id="0" precision="FP16">
					<dim>1</dim>
					<dim>32</dim>
					<dim>1</dim>
					<dim>1</dim>
				</port>
			</output>
		</layer>
		<layer id="107" name="__module.RRDB_trunk.0.rdb3.conv3/aten::_convolution/Reshape" type="Convert" version="opset1">
			<data destination_type="f32" />
			<rt_info>
				<attribute name="decompression" version="0" />
			</rt_info>
			<input>
				<port id="0" precision="FP16">
					<dim>1</dim>
					<dim>32</dim>
					<dim>1</dim>
					<dim>1</dim>
				</port>
			</input>
			<output>
				<port id="1" precision="FP32">
					<dim>1</dim>
					<dim>32</dim>
					<dim>1</dim>
					<dim>1</dim>
				</port>
			</output>
		</layer>
		<layer id="108" name="__module.RRDB_trunk.0.rdb3.conv3/aten::_convolution/Add" type="Add" version="opset1">
			<data auto_broadcast="numpy" />
			<input>
				<port id="0" precision="FP32">
					<dim>-1</dim>
					<dim>32</dim>
					<dim>-1</dim>
					<dim>-1</dim>
				</port>
				<port id="1" precision="FP32">
					<dim>1</dim>
					<dim>32</dim>
					<dim>1</dim>
					<dim>1</dim>
				</port>
			</input>
			<output>
				<port id="2" precision="FP32" names="217_1">
					<dim>-1</dim>
					<dim>32</dim>
					<dim>-1</dim>
					<dim>-1</dim>
				</port>
			</output>
		</layer>
		<layer id="109" name="__module.RRDB_trunk.0.rdb3.lrelu/aten::leaky_relu_/PRelu_2" type="PReLU" version="opset1">
			<input>
				<port id="0" precision="FP32">
					<dim>-1</dim>
					<dim>32</dim>
					<dim>-1</dim>
					<dim>-1</dim>
				</port>
				<port id="1" precision="FP32" />
			</input>
			<output>
				<port id="2" precision="FP32" names="217,input.47">
					<dim>-1</dim>
					<dim>32</dim>
					<dim>-1</dim>
					<dim>-1</dim>
				</port>
			</output>
		</layer>
		<layer id="110" name="__module.RRDB_trunk.0.rdb3/aten::cat/Concat_2" type="Concat" version="opset1">
			<data axis="1" />
			<input>
				<port id="0" precision="FP32">
					<dim>-1</dim>
					<dim>64</dim>
					<dim>-1</dim>
					<dim>-1</dim>
				</port>
				<port id="1" precision="FP32">
					<dim>-1</dim>
					<dim>32</dim>
					<dim>-1</dim>
					<dim>-1</dim>
				</port>
				<port id="2" precision="FP32">
					<dim>-1</dim>
					<dim>32</dim>
					<dim>-1</dim>
					<dim>-1</dim>
				</port>
				<port id="3" precision="FP32">
					<dim>-1</dim>
					<dim>32</dim>
					<dim>-1</dim>
					<dim>-1</dim>
				</port>
			</input>
			<output>
				<port id="4" precision="FP32" names="220,input.49">
					<dim>-1</dim>
					<dim>160</dim>
					<dim>-1</dim>
					<dim>-1</dim>
				</port>
			</output>
		</layer>
		<layer id="111" name="self.RRDB_trunk.0.rdb3.conv4.weight_compressed" type="Const" version="opset1">
			<data element_type="f16" shape="32, 160, 3, 3" offset="1128898" size="92160" />
			<output>
				<port id="0" precision="FP16" names="self.RRDB_trunk.0.rdb3.conv4.weight">
					<dim>32</dim>
					<dim>160</dim>
					<dim>3</dim>
					<dim>3</dim>
				</port>
			</output>
		</layer>
		<layer id="112" name="self.RRDB_trunk.0.rdb3.conv4.weight" type="Convert" version="opset1">
			<data destination_type="f32" />
			<rt_info>
				<attribute name="decompression" version="0" />
			</rt_info>
			<input>
				<port id="0" precision="FP16">
					<dim>32</dim>
					<dim>160</dim>
					<dim>3</dim>
					<dim>3</dim>
				</port>
			</input>
			<output>
				<port id="1" precision="FP32">
					<dim>32</dim>
					<dim>160</dim>
					<dim>3</dim>
					<dim>3</dim>
				</port>
			</output>
		</layer>
		<layer id="113" name="__module.RRDB_trunk.0.rdb3.conv4/aten::_convolution/Convolution" type="Convolution" version="opset1">
			<data strides="1, 1" dilations="1, 1" pads_begin="1, 1" pads_end="1, 1" auto_pad="explicit" />
			<input>
				<port id="0" precision="FP32">
					<dim>-1</dim>
					<dim>160</dim>
					<dim>-1</dim>
					<dim>-1</dim>
				</port>
				<port id="1" precision="FP32">
					<dim>32</dim>
					<dim>160</dim>
					<dim>3</dim>
					<dim>3</dim>
				</port>
			</input>
			<output>
				<port id="2" precision="FP32">
					<dim>-1</dim>
					<dim>32</dim>
					<dim>-1</dim>
					<dim>-1</dim>
				</port>
			</output>
		</layer>
		<layer id="114" name="__module.RRDB_trunk.0.rdb3.conv4/aten::_convolution/Reshape_compressed" type="Const" version="opset1">
			<data element_type="f16" shape="1, 32, 1, 1" offset="1221058" size="64" />
			<output>
				<port id="0" precision="FP16">
					<dim>1</dim>
					<dim>32</dim>
					<dim>1</dim>
					<dim>1</dim>
				</port>
			</output>
		</layer>
		<layer id="115" name="__module.RRDB_trunk.0.rdb3.conv4/aten::_convolution/Reshape" type="Convert" version="opset1">
			<data destination_type="f32" />
			<rt_info>
				<attribute name="decompression" version="0" />
			</rt_info>
			<input>
				<port id="0" precision="FP16">
					<dim>1</dim>
					<dim>32</dim>
					<dim>1</dim>
					<dim>1</dim>
				</port>
			</input>
			<output>
				<port id="1" precision="FP32">
					<dim>1</dim>
					<dim>32</dim>
					<dim>1</dim>
					<dim>1</dim>
				</port>
			</output>
		</layer>
		<layer id="116" name="__module.RRDB_trunk.0.rdb3.conv4/aten::_convolution/Add" type="Add" version="opset1">
			<data auto_broadcast="numpy" />
			<input>
				<port id="0" precision="FP32">
					<dim>-1</dim>
					<dim>32</dim>
					<dim>-1</dim>
					<dim>-1</dim>
				</port>
				<port id="1" precision="FP32">
					<dim>1</dim>
					<dim>32</dim>
					<dim>1</dim>
					<dim>1</dim>
				</port>
			</input>
			<output>
				<port id="2" precision="FP32" names="227_1">
					<dim>-1</dim>
					<dim>32</dim>
					<dim>-1</dim>
					<dim>-1</dim>
				</port>
			</output>
		</layer>
		<layer id="117" name="__module.RRDB_trunk.0.rdb3.lrelu/aten::leaky_relu_/PRelu_3" type="PReLU" version="opset1">
			<input>
				<port id="0" precision="FP32">
					<dim>-1</dim>
					<dim>32</dim>
					<dim>-1</dim>
					<dim>-1</dim>
				</port>
				<port id="1" precision="FP32" />
			</input>
			<output>
				<port id="2" precision="FP32" names="227,input.51">
					<dim>-1</dim>
					<dim>32</dim>
					<dim>-1</dim>
					<dim>-1</dim>
				</port>
			</output>
		</layer>
		<layer id="118" name="__module.RRDB_trunk.0.rdb3/aten::cat/Concat_3" type="Concat" version="opset1">
			<data axis="1" />
			<input>
				<port id="0" precision="FP32">
					<dim>-1</dim>
					<dim>64</dim>
					<dim>-1</dim>
					<dim>-1</dim>
				</port>
				<port id="1" precision="FP32">
					<dim>-1</dim>
					<dim>32</dim>
					<dim>-1</dim>
					<dim>-1</dim>
				</port>
				<port id="2" precision="FP32">
					<dim>-1</dim>
					<dim>32</dim>
					<dim>-1</dim>
					<dim>-1</dim>
				</port>
				<port id="3" precision="FP32">
					<dim>-1</dim>
					<dim>32</dim>
					<dim>-1</dim>
					<dim>-1</dim>
				</port>
				<port id="4" precision="FP32">
					<dim>-1</dim>
					<dim>32</dim>
					<dim>-1</dim>
					<dim>-1</dim>
				</port>
			</input>
			<output>
				<port id="5" precision="FP32" names="230,input.53">
					<dim>-1</dim>
					<dim>192</dim>
					<dim>-1</dim>
					<dim>-1</dim>
				</port>
			</output>
		</layer>
		<layer id="119" name="Multiply_34817_compressed" type="Const" version="opset1">
			<data element_type="f16" shape="64, 192, 3, 3" offset="1221122" size="221184" />
			<output>
				<port id="0" precision="FP16">
					<dim>64</dim>
					<dim>192</dim>
					<dim>3</dim>
					<dim>3</dim>
				</port>
			</output>
		</layer>
		<layer id="120" name="Multiply_34817" type="Convert" version="opset1">
			<data destination_type="f32" />
			<rt_info>
				<attribute name="decompression" version="0" />
			</rt_info>
			<input>
				<port id="0" precision="FP16">
					<dim>64</dim>
					<dim>192</dim>
					<dim>3</dim>
					<dim>3</dim>
				</port>
			</input>
			<output>
				<port id="1" precision="FP32">
					<dim>64</dim>
					<dim>192</dim>
					<dim>3</dim>
					<dim>3</dim>
				</port>
			</output>
		</layer>
		<layer id="121" name="Multiply_34545" type="Convolution" version="opset1">
			<data strides="1, 1" dilations="1, 1" pads_begin="1, 1" pads_end="1, 1" auto_pad="explicit" />
			<input>
				<port id="0" precision="FP32">
					<dim>-1</dim>
					<dim>192</dim>
					<dim>-1</dim>
					<dim>-1</dim>
				</port>
				<port id="1" precision="FP32">
					<dim>64</dim>
					<dim>192</dim>
					<dim>3</dim>
					<dim>3</dim>
				</port>
			</input>
			<output>
				<port id="2" precision="FP32">
					<dim>-1</dim>
					<dim>64</dim>
					<dim>-1</dim>
					<dim>-1</dim>
				</port>
			</output>
		</layer>
		<layer id="122" name="Constant_34547_compressed" type="Const" version="opset1">
			<data element_type="f16" shape="1, 64, 1, 1" offset="1442306" size="128" />
			<output>
				<port id="0" precision="FP16">
					<dim>1</dim>
					<dim>64</dim>
					<dim>1</dim>
					<dim>1</dim>
				</port>
			</output>
		</layer>
		<layer id="123" name="Constant_34547" type="Convert" version="opset1">
			<data destination_type="f32" />
			<rt_info>
				<attribute name="decompression" version="0" />
			</rt_info>
			<input>
				<port id="0" precision="FP16">
					<dim>1</dim>
					<dim>64</dim>
					<dim>1</dim>
					<dim>1</dim>
				</port>
			</input>
			<output>
				<port id="1" precision="FP32">
					<dim>1</dim>
					<dim>64</dim>
					<dim>1</dim>
					<dim>1</dim>
				</port>
			</output>
		</layer>
		<layer id="124" name="__module.RRDB_trunk.0.rdb3/aten::mul/Multiply" type="Add" version="opset1">
			<data auto_broadcast="numpy" />
			<input>
				<port id="0" precision="FP32">
					<dim>-1</dim>
					<dim>64</dim>
					<dim>-1</dim>
					<dim>-1</dim>
				</port>
				<port id="1" precision="FP32">
					<dim>1</dim>
					<dim>64</dim>
					<dim>1</dim>
					<dim>1</dim>
				</port>
			</input>
			<output>
				<port id="2" precision="FP32" names="238">
					<dim>-1</dim>
					<dim>64</dim>
					<dim>-1</dim>
					<dim>-1</dim>
				</port>
			</output>
		</layer>
		<layer id="125" name="__module.RRDB_trunk.0.rdb3/aten::add/Add" type="Add" version="opset1">
			<data auto_broadcast="numpy" />
			<input>
				<port id="0" precision="FP32">
					<dim>-1</dim>
					<dim>64</dim>
					<dim>-1</dim>
					<dim>-1</dim>
				</port>
				<port id="1" precision="FP32">
					<dim>-1</dim>
					<dim>64</dim>
					<dim>-1</dim>
					<dim>-1</dim>
				</port>
			</input>
			<output>
				<port id="2" precision="FP32" names="239,out.1">
					<dim>-1</dim>
					<dim>64</dim>
					<dim>-1</dim>
					<dim>-1</dim>
				</port>
			</output>
		</layer>
		<layer id="126" name="Constant_35028_compressed" type="Const" version="opset1">
			<data element_type="f16" shape="1, 1, 1, 1" offset="40512" size="2" />
			<output>
				<port id="0" precision="FP16">
					<dim>1</dim>
					<dim>1</dim>
					<dim>1</dim>
					<dim>1</dim>
				</port>
			</output>
		</layer>
		<layer id="127" name="Constant_35028" type="Convert" version="opset1">
			<data destination_type="f32" />
			<rt_info>
				<attribute name="decompression" version="0" />
			</rt_info>
			<input>
				<port id="0" precision="FP16">
					<dim>1</dim>
					<dim>1</dim>
					<dim>1</dim>
					<dim>1</dim>
				</port>
			</input>
			<output>
				<port id="1" precision="FP32">
					<dim>1</dim>
					<dim>1</dim>
					<dim>1</dim>
					<dim>1</dim>
				</port>
			</output>
		</layer>
		<layer id="128" name="__module.RRDB_trunk.0/aten::mul/Multiply" type="Multiply" version="opset1">
			<data auto_broadcast="numpy" />
			<input>
				<port id="0" precision="FP32">
					<dim>-1</dim>
					<dim>64</dim>
					<dim>-1</dim>
					<dim>-1</dim>
				</port>
				<port id="1" precision="FP32">
					<dim>1</dim>
					<dim>1</dim>
					<dim>1</dim>
					<dim>1</dim>
				</port>
			</input>
			<output>
				<port id="2" precision="FP32" names="240">
					<dim>-1</dim>
					<dim>64</dim>
					<dim>-1</dim>
					<dim>-1</dim>
				</port>
			</output>
		</layer>
		<layer id="129" name="__module.RRDB_trunk.0/aten::add/Add" type="Add" version="opset1">
			<data auto_broadcast="numpy" />
			<input>
				<port id="0" precision="FP32">
					<dim>-1</dim>
					<dim>64</dim>
					<dim>-1</dim>
					<dim>-1</dim>
				</port>
				<port id="1" precision="FP32">
					<dim>-1</dim>
					<dim>64</dim>
					<dim>-1</dim>
					<dim>-1</dim>
				</port>
			</input>
			<output>
				<port id="2" precision="FP32" names="241,input.55">
					<dim>-1</dim>
					<dim>64</dim>
					<dim>-1</dim>
					<dim>-1</dim>
				</port>
			</output>
		</layer>
		<layer id="130" name="self.RRDB_trunk.1.rdb1.conv1.weight_compressed" type="Const" version="opset1">
			<data element_type="f16" shape="32, 64, 3, 3" offset="1442434" size="36864" />
			<output>
				<port id="0" precision="FP16" names="self.RRDB_trunk.1.rdb1.conv1.weight">
					<dim>32</dim>
					<dim>64</dim>
					<dim>3</dim>
					<dim>3</dim>
				</port>
			</output>
		</layer>
		<layer id="131" name="self.RRDB_trunk.1.rdb1.conv1.weight" type="Convert" version="opset1">
			<data destination_type="f32" />
			<rt_info>
				<attribute name="decompression" version="0" />
			</rt_info>
			<input>
				<port id="0" precision="FP16">
					<dim>32</dim>
					<dim>64</dim>
					<dim>3</dim>
					<dim>3</dim>
				</port>
			</input>
			<output>
				<port id="1" precision="FP32">
					<dim>32</dim>
					<dim>64</dim>
					<dim>3</dim>
					<dim>3</dim>
				</port>
			</output>
		</layer>
		<layer id="132" name="__module.RRDB_trunk.1.rdb1.conv1/aten::_convolution/Convolution" type="Convolution" version="opset1">
			<data strides="1, 1" dilations="1, 1" pads_begin="1, 1" pads_end="1, 1" auto_pad="explicit" />
			<input>
				<port id="0" precision="FP32">
					<dim>-1</dim>
					<dim>64</dim>
					<dim>-1</dim>
					<dim>-1</dim>
				</port>
				<port id="1" precision="FP32">
					<dim>32</dim>
					<dim>64</dim>
					<dim>3</dim>
					<dim>3</dim>
				</port>
			</input>
			<output>
				<port id="2" precision="FP32">
					<dim>-1</dim>
					<dim>32</dim>
					<dim>-1</dim>
					<dim>-1</dim>
				</port>
			</output>
		</layer>
		<layer id="133" name="__module.RRDB_trunk.1.rdb1.conv1/aten::_convolution/Reshape_compressed" type="Const" version="opset1">
			<data element_type="f16" shape="1, 32, 1, 1" offset="1479298" size="64" />
			<output>
				<port id="0" precision="FP16">
					<dim>1</dim>
					<dim>32</dim>
					<dim>1</dim>
					<dim>1</dim>
				</port>
			</output>
		</layer>
		<layer id="134" name="__module.RRDB_trunk.1.rdb1.conv1/aten::_convolution/Reshape" type="Convert" version="opset1">
			<data destination_type="f32" />
			<rt_info>
				<attribute name="decompression" version="0" />
			</rt_info>
			<input>
				<port id="0" precision="FP16">
					<dim>1</dim>
					<dim>32</dim>
					<dim>1</dim>
					<dim>1</dim>
				</port>
			</input>
			<output>
				<port id="1" precision="FP32">
					<dim>1</dim>
					<dim>32</dim>
					<dim>1</dim>
					<dim>1</dim>
				</port>
			</output>
		</layer>
		<layer id="135" name="__module.RRDB_trunk.1.rdb1.conv1/aten::_convolution/Add" type="Add" version="opset1">
			<data auto_broadcast="numpy" />
			<input>
				<port id="0" precision="FP32">
					<dim>-1</dim>
					<dim>32</dim>
					<dim>-1</dim>
					<dim>-1</dim>
				</port>
				<port id="1" precision="FP32">
					<dim>1</dim>
					<dim>32</dim>
					<dim>1</dim>
					<dim>1</dim>
				</port>
			</input>
			<output>
				<port id="2" precision="FP32" names="257_1">
					<dim>-1</dim>
					<dim>32</dim>
					<dim>-1</dim>
					<dim>-1</dim>
				</port>
			</output>
		</layer>
		<layer id="136" name="__module.RRDB_trunk.1.rdb1.lrelu/aten::leaky_relu_/PRelu" type="PReLU" version="opset1">
			<input>
				<port id="0" precision="FP32">
					<dim>-1</dim>
					<dim>32</dim>
					<dim>-1</dim>
					<dim>-1</dim>
				</port>
				<port id="1" precision="FP32" />
			</input>
			<output>
				<port id="2" precision="FP32" names="257,input.57">
					<dim>-1</dim>
					<dim>32</dim>
					<dim>-1</dim>
					<dim>-1</dim>
				</port>
			</output>
		</layer>
		<layer id="137" name="__module.RRDB_trunk.1.rdb1/aten::cat/Concat" type="Concat" version="opset1">
			<data axis="1" />
			<input>
				<port id="0" precision="FP32">
					<dim>-1</dim>
					<dim>64</dim>
					<dim>-1</dim>
					<dim>-1</dim>
				</port>
				<port id="1" precision="FP32">
					<dim>-1</dim>
					<dim>32</dim>
					<dim>-1</dim>
					<dim>-1</dim>
				</port>
			</input>
			<output>
				<port id="2" precision="FP32" names="260,input.59">
					<dim>-1</dim>
					<dim>96</dim>
					<dim>-1</dim>
					<dim>-1</dim>
				</port>
			</output>
		</layer>
		<layer id="138" name="self.RRDB_trunk.1.rdb1.conv2.weight_compressed" type="Const" version="opset1">
			<data element_type="f16" shape="32, 96, 3, 3" offset="1479362" size="55296" />
			<output>
				<port id="0" precision="FP16" names="self.RRDB_trunk.1.rdb1.conv2.weight">
					<dim>32</dim>
					<dim>96</dim>
					<dim>3</dim>
					<dim>3</dim>
				</port>
			</output>
		</layer>
		<layer id="139" name="self.RRDB_trunk.1.rdb1.conv2.weight" type="Convert" version="opset1">
			<data destination_type="f32" />
			<rt_info>
				<attribute name="decompression" version="0" />
			</rt_info>
			<input>
				<port id="0" precision="FP16">
					<dim>32</dim>
					<dim>96</dim>
					<dim>3</dim>
					<dim>3</dim>
				</port>
			</input>
			<output>
				<port id="1" precision="FP32">
					<dim>32</dim>
					<dim>96</dim>
					<dim>3</dim>
					<dim>3</dim>
				</port>
			</output>
		</layer>
		<layer id="140" name="__module.RRDB_trunk.1.rdb1.conv2/aten::_convolution/Convolution" type="Convolution" version="opset1">
			<data strides="1, 1" dilations="1, 1" pads_begin="1, 1" pads_end="1, 1" auto_pad="explicit" />
			<input>
				<port id="0" precision="FP32">
					<dim>-1</dim>
					<dim>96</dim>
					<dim>-1</dim>
					<dim>-1</dim>
				</port>
				<port id="1" precision="FP32">
					<dim>32</dim>
					<dim>96</dim>
					<dim>3</dim>
					<dim>3</dim>
				</port>
			</input>
			<output>
				<port id="2" precision="FP32">
					<dim>-1</dim>
					<dim>32</dim>
					<dim>-1</dim>
					<dim>-1</dim>
				</port>
			</output>
		</layer>
		<layer id="141" name="__module.RRDB_trunk.1.rdb1.conv2/aten::_convolution/Reshape_compressed" type="Const" version="opset1">
			<data element_type="f16" shape="1, 32, 1, 1" offset="1534658" size="64" />
			<output>
				<port id="0" precision="FP16">
					<dim>1</dim>
					<dim>32</dim>
					<dim>1</dim>
					<dim>1</dim>
				</port>
			</output>
		</layer>
		<layer id="142" name="__module.RRDB_trunk.1.rdb1.conv2/aten::_convolution/Reshape" type="Convert" version="opset1">
			<data destination_type="f32" />
			<rt_info>
				<attribute name="decompression" version="0" />
			</rt_info>
			<input>
				<port id="0" precision="FP16">
					<dim>1</dim>
					<dim>32</dim>
					<dim>1</dim>
					<dim>1</dim>
				</port>
			</input>
			<output>
				<port id="1" precision="FP32">
					<dim>1</dim>
					<dim>32</dim>
					<dim>1</dim>
					<dim>1</dim>
				</port>
			</output>
		</layer>
		<layer id="143" name="__module.RRDB_trunk.1.rdb1.conv2/aten::_convolution/Add" type="Add" version="opset1">
			<data auto_broadcast="numpy" />
			<input>
				<port id="0" precision="FP32">
					<dim>-1</dim>
					<dim>32</dim>
					<dim>-1</dim>
					<dim>-1</dim>
				</port>
				<port id="1" precision="FP32">
					<dim>1</dim>
					<dim>32</dim>
					<dim>1</dim>
					<dim>1</dim>
				</port>
			</input>
			<output>
				<port id="2" precision="FP32" names="267_1">
					<dim>-1</dim>
					<dim>32</dim>
					<dim>-1</dim>
					<dim>-1</dim>
				</port>
			</output>
		</layer>
		<layer id="144" name="__module.RRDB_trunk.1.rdb1.lrelu/aten::leaky_relu_/PRelu_1" type="PReLU" version="opset1">
			<input>
				<port id="0" precision="FP32">
					<dim>-1</dim>
					<dim>32</dim>
					<dim>-1</dim>
					<dim>-1</dim>
				</port>
				<port id="1" precision="FP32" />
			</input>
			<output>
				<port id="2" precision="FP32" names="267,input.61">
					<dim>-1</dim>
					<dim>32</dim>
					<dim>-1</dim>
					<dim>-1</dim>
				</port>
			</output>
		</layer>
		<layer id="145" name="__module.RRDB_trunk.1.rdb1/aten::cat/Concat_1" type="Concat" version="opset1">
			<data axis="1" />
			<input>
				<port id="0" precision="FP32">
					<dim>-1</dim>
					<dim>64</dim>
					<dim>-1</dim>
					<dim>-1</dim>
				</port>
				<port id="1" precision="FP32">
					<dim>-1</dim>
					<dim>32</dim>
					<dim>-1</dim>
					<dim>-1</dim>
				</port>
				<port id="2" precision="FP32">
					<dim>-1</dim>
					<dim>32</dim>
					<dim>-1</dim>
					<dim>-1</dim>
				</port>
			</input>
			<output>
				<port id="3" precision="FP32" names="270,input.63">
					<dim>-1</dim>
					<dim>128</dim>
					<dim>-1</dim>
					<dim>-1</dim>
				</port>
			</output>
		</layer>
		<layer id="146" name="self.RRDB_trunk.1.rdb1.conv3.weight_compressed" type="Const" version="opset1">
			<data element_type="f16" shape="32, 128, 3, 3" offset="1534722" size="73728" />
			<output>
				<port id="0" precision="FP16" names="self.RRDB_trunk.1.rdb1.conv3.weight">
					<dim>32</dim>
					<dim>128</dim>
					<dim>3</dim>
					<dim>3</dim>
				</port>
			</output>
		</layer>
		<layer id="147" name="self.RRDB_trunk.1.rdb1.conv3.weight" type="Convert" version="opset1">
			<data destination_type="f32" />
			<rt_info>
				<attribute name="decompression" version="0" />
			</rt_info>
			<input>
				<port id="0" precision="FP16">
					<dim>32</dim>
					<dim>128</dim>
					<dim>3</dim>
					<dim>3</dim>
				</port>
			</input>
			<output>
				<port id="1" precision="FP32">
					<dim>32</dim>
					<dim>128</dim>
					<dim>3</dim>
					<dim>3</dim>
				</port>
			</output>
		</layer>
		<layer id="148" name="__module.RRDB_trunk.1.rdb1.conv3/aten::_convolution/Convolution" type="Convolution" version="opset1">
			<data strides="1, 1" dilations="1, 1" pads_begin="1, 1" pads_end="1, 1" auto_pad="explicit" />
			<input>
				<port id="0" precision="FP32">
					<dim>-1</dim>
					<dim>128</dim>
					<dim>-1</dim>
					<dim>-1</dim>
				</port>
				<port id="1" precision="FP32">
					<dim>32</dim>
					<dim>128</dim>
					<dim>3</dim>
					<dim>3</dim>
				</port>
			</input>
			<output>
				<port id="2" precision="FP32">
					<dim>-1</dim>
					<dim>32</dim>
					<dim>-1</dim>
					<dim>-1</dim>
				</port>
			</output>
		</layer>
		<layer id="149" name="__module.RRDB_trunk.1.rdb1.conv3/aten::_convolution/Reshape_compressed" type="Const" version="opset1">
			<data element_type="f16" shape="1, 32, 1, 1" offset="1608450" size="64" />
			<output>
				<port id="0" precision="FP16">
					<dim>1</dim>
					<dim>32</dim>
					<dim>1</dim>
					<dim>1</dim>
				</port>
			</output>
		</layer>
		<layer id="150" name="__module.RRDB_trunk.1.rdb1.conv3/aten::_convolution/Reshape" type="Convert" version="opset1">
			<data destination_type="f32" />
			<rt_info>
				<attribute name="decompression" version="0" />
			</rt_info>
			<input>
				<port id="0" precision="FP16">
					<dim>1</dim>
					<dim>32</dim>
					<dim>1</dim>
					<dim>1</dim>
				</port>
			</input>
			<output>
				<port id="1" precision="FP32">
					<dim>1</dim>
					<dim>32</dim>
					<dim>1</dim>
					<dim>1</dim>
				</port>
			</output>
		</layer>
		<layer id="151" name="__module.RRDB_trunk.1.rdb1.conv3/aten::_convolution/Add" type="Add" version="opset1">
			<data auto_broadcast="numpy" />
			<input>
				<port id="0" precision="FP32">
					<dim>-1</dim>
					<dim>32</dim>
					<dim>-1</dim>
					<dim>-1</dim>
				</port>
				<port id="1" precision="FP32">
					<dim>1</dim>
					<dim>32</dim>
					<dim>1</dim>
					<dim>1</dim>
				</port>
			</input>
			<output>
				<port id="2" precision="FP32" names="277_1">
					<dim>-1</dim>
					<dim>32</dim>
					<dim>-1</dim>
					<dim>-1</dim>
				</port>
			</output>
		</layer>
		<layer id="152" name="__module.RRDB_trunk.1.rdb1.lrelu/aten::leaky_relu_/PRelu_2" type="PReLU" version="opset1">
			<input>
				<port id="0" precision="FP32">
					<dim>-1</dim>
					<dim>32</dim>
					<dim>-1</dim>
					<dim>-1</dim>
				</port>
				<port id="1" precision="FP32" />
			</input>
			<output>
				<port id="2" precision="FP32" names="277,input.65">
					<dim>-1</dim>
					<dim>32</dim>
					<dim>-1</dim>
					<dim>-1</dim>
				</port>
			</output>
		</layer>
		<layer id="153" name="__module.RRDB_trunk.1.rdb1/aten::cat/Concat_2" type="Concat" version="opset1">
			<data axis="1" />
			<input>
				<port id="0" precision="FP32">
					<dim>-1</dim>
					<dim>64</dim>
					<dim>-1</dim>
					<dim>-1</dim>
				</port>
				<port id="1" precision="FP32">
					<dim>-1</dim>
					<dim>32</dim>
					<dim>-1</dim>
					<dim>-1</dim>
				</port>
				<port id="2" precision="FP32">
					<dim>-1</dim>
					<dim>32</dim>
					<dim>-1</dim>
					<dim>-1</dim>
				</port>
				<port id="3" precision="FP32">
					<dim>-1</dim>
					<dim>32</dim>
					<dim>-1</dim>
					<dim>-1</dim>
				</port>
			</input>
			<output>
				<port id="4" precision="FP32" names="280,input.67">
					<dim>-1</dim>
					<dim>160</dim>
					<dim>-1</dim>
					<dim>-1</dim>
				</port>
			</output>
		</layer>
		<layer id="154" name="self.RRDB_trunk.1.rdb1.conv4.weight_compressed" type="Const" version="opset1">
			<data element_type="f16" shape="32, 160, 3, 3" offset="1608514" size="92160" />
			<output>
				<port id="0" precision="FP16" names="self.RRDB_trunk.1.rdb1.conv4.weight">
					<dim>32</dim>
					<dim>160</dim>
					<dim>3</dim>
					<dim>3</dim>
				</port>
			</output>
		</layer>
		<layer id="155" name="self.RRDB_trunk.1.rdb1.conv4.weight" type="Convert" version="opset1">
			<data destination_type="f32" />
			<rt_info>
				<attribute name="decompression" version="0" />
			</rt_info>
			<input>
				<port id="0" precision="FP16">
					<dim>32</dim>
					<dim>160</dim>
					<dim>3</dim>
					<dim>3</dim>
				</port>
			</input>
			<output>
				<port id="1" precision="FP32">
					<dim>32</dim>
					<dim>160</dim>
					<dim>3</dim>
					<dim>3</dim>
				</port>
			</output>
		</layer>
		<layer id="156" name="__module.RRDB_trunk.1.rdb1.conv4/aten::_convolution/Convolution" type="Convolution" version="opset1">
			<data strides="1, 1" dilations="1, 1" pads_begin="1, 1" pads_end="1, 1" auto_pad="explicit" />
			<input>
				<port id="0" precision="FP32">
					<dim>-1</dim>
					<dim>160</dim>
					<dim>-1</dim>
					<dim>-1</dim>
				</port>
				<port id="1" precision="FP32">
					<dim>32</dim>
					<dim>160</dim>
					<dim>3</dim>
					<dim>3</dim>
				</port>
			</input>
			<output>
				<port id="2" precision="FP32">
					<dim>-1</dim>
					<dim>32</dim>
					<dim>-1</dim>
					<dim>-1</dim>
				</port>
			</output>
		</layer>
		<layer id="157" name="__module.RRDB_trunk.1.rdb1.conv4/aten::_convolution/Reshape_compressed" type="Const" version="opset1">
			<data element_type="f16" shape="1, 32, 1, 1" offset="1700674" size="64" />
			<output>
				<port id="0" precision="FP16">
					<dim>1</dim>
					<dim>32</dim>
					<dim>1</dim>
					<dim>1</dim>
				</port>
			</output>
		</layer>
		<layer id="158" name="__module.RRDB_trunk.1.rdb1.conv4/aten::_convolution/Reshape" type="Convert" version="opset1">
			<data destination_type="f32" />
			<rt_info>
				<attribute name="decompression" version="0" />
			</rt_info>
			<input>
				<port id="0" precision="FP16">
					<dim>1</dim>
					<dim>32</dim>
					<dim>1</dim>
					<dim>1</dim>
				</port>
			</input>
			<output>
				<port id="1" precision="FP32">
					<dim>1</dim>
					<dim>32</dim>
					<dim>1</dim>
					<dim>1</dim>
				</port>
			</output>
		</layer>
		<layer id="159" name="__module.RRDB_trunk.1.rdb1.conv4/aten::_convolution/Add" type="Add" version="opset1">
			<data auto_broadcast="numpy" />
			<input>
				<port id="0" precision="FP32">
					<dim>-1</dim>
					<dim>32</dim>
					<dim>-1</dim>
					<dim>-1</dim>
				</port>
				<port id="1" precision="FP32">
					<dim>1</dim>
					<dim>32</dim>
					<dim>1</dim>
					<dim>1</dim>
				</port>
			</input>
			<output>
				<port id="2" precision="FP32" names="287_1">
					<dim>-1</dim>
					<dim>32</dim>
					<dim>-1</dim>
					<dim>-1</dim>
				</port>
			</output>
		</layer>
		<layer id="160" name="__module.RRDB_trunk.1.rdb1.lrelu/aten::leaky_relu_/PRelu_3" type="PReLU" version="opset1">
			<input>
				<port id="0" precision="FP32">
					<dim>-1</dim>
					<dim>32</dim>
					<dim>-1</dim>
					<dim>-1</dim>
				</port>
				<port id="1" precision="FP32" />
			</input>
			<output>
				<port id="2" precision="FP32" names="287,input.69">
					<dim>-1</dim>
					<dim>32</dim>
					<dim>-1</dim>
					<dim>-1</dim>
				</port>
			</output>
		</layer>
		<layer id="161" name="__module.RRDB_trunk.1.rdb1/aten::cat/Concat_3" type="Concat" version="opset1">
			<data axis="1" />
			<input>
				<port id="0" precision="FP32">
					<dim>-1</dim>
					<dim>64</dim>
					<dim>-1</dim>
					<dim>-1</dim>
				</port>
				<port id="1" precision="FP32">
					<dim>-1</dim>
					<dim>32</dim>
					<dim>-1</dim>
					<dim>-1</dim>
				</port>
				<port id="2" precision="FP32">
					<dim>-1</dim>
					<dim>32</dim>
					<dim>-1</dim>
					<dim>-1</dim>
				</port>
				<port id="3" precision="FP32">
					<dim>-1</dim>
					<dim>32</dim>
					<dim>-1</dim>
					<dim>-1</dim>
				</port>
				<port id="4" precision="FP32">
					<dim>-1</dim>
					<dim>32</dim>
					<dim>-1</dim>
					<dim>-1</dim>
				</port>
			</input>
			<output>
				<port id="5" precision="FP32" names="290,input.71">
					<dim>-1</dim>
					<dim>192</dim>
					<dim>-1</dim>
					<dim>-1</dim>
				</port>
			</output>
		</layer>
		<layer id="162" name="Multiply_34819_compressed" type="Const" version="opset1">
			<data element_type="f16" shape="64, 192, 3, 3" offset="1700738" size="221184" />
			<output>
				<port id="0" precision="FP16">
					<dim>64</dim>
					<dim>192</dim>
					<dim>3</dim>
					<dim>3</dim>
				</port>
			</output>
		</layer>
		<layer id="163" name="Multiply_34819" type="Convert" version="opset1">
			<data destination_type="f32" />
			<rt_info>
				<attribute name="decompression" version="0" />
			</rt_info>
			<input>
				<port id="0" precision="FP16">
					<dim>64</dim>
					<dim>192</dim>
					<dim>3</dim>
					<dim>3</dim>
				</port>
			</input>
			<output>
				<port id="1" precision="FP32">
					<dim>64</dim>
					<dim>192</dim>
					<dim>3</dim>
					<dim>3</dim>
				</port>
			</output>
		</layer>
		<layer id="164" name="Multiply_34549" type="Convolution" version="opset1">
			<data strides="1, 1" dilations="1, 1" pads_begin="1, 1" pads_end="1, 1" auto_pad="explicit" />
			<input>
				<port id="0" precision="FP32">
					<dim>-1</dim>
					<dim>192</dim>
					<dim>-1</dim>
					<dim>-1</dim>
				</port>
				<port id="1" precision="FP32">
					<dim>64</dim>
					<dim>192</dim>
					<dim>3</dim>
					<dim>3</dim>
				</port>
			</input>
			<output>
				<port id="2" precision="FP32">
					<dim>-1</dim>
					<dim>64</dim>
					<dim>-1</dim>
					<dim>-1</dim>
				</port>
			</output>
		</layer>
		<layer id="165" name="Constant_34551_compressed" type="Const" version="opset1">
			<data element_type="f16" shape="1, 64, 1, 1" offset="1921922" size="128" />
			<output>
				<port id="0" precision="FP16">
					<dim>1</dim>
					<dim>64</dim>
					<dim>1</dim>
					<dim>1</dim>
				</port>
			</output>
		</layer>
		<layer id="166" name="Constant_34551" type="Convert" version="opset1">
			<data destination_type="f32" />
			<rt_info>
				<attribute name="decompression" version="0" />
			</rt_info>
			<input>
				<port id="0" precision="FP16">
					<dim>1</dim>
					<dim>64</dim>
					<dim>1</dim>
					<dim>1</dim>
				</port>
			</input>
			<output>
				<port id="1" precision="FP32">
					<dim>1</dim>
					<dim>64</dim>
					<dim>1</dim>
					<dim>1</dim>
				</port>
			</output>
		</layer>
		<layer id="167" name="__module.RRDB_trunk.1.rdb1/aten::mul/Multiply" type="Add" version="opset1">
			<data auto_broadcast="numpy" />
			<input>
				<port id="0" precision="FP32">
					<dim>-1</dim>
					<dim>64</dim>
					<dim>-1</dim>
					<dim>-1</dim>
				</port>
				<port id="1" precision="FP32">
					<dim>1</dim>
					<dim>64</dim>
					<dim>1</dim>
					<dim>1</dim>
				</port>
			</input>
			<output>
				<port id="2" precision="FP32" names="298">
					<dim>-1</dim>
					<dim>64</dim>
					<dim>-1</dim>
					<dim>-1</dim>
				</port>
			</output>
		</layer>
		<layer id="168" name="__module.RRDB_trunk.1.rdb1/aten::add/Add" type="Add" version="opset1">
			<data auto_broadcast="numpy" />
			<input>
				<port id="0" precision="FP32">
					<dim>-1</dim>
					<dim>64</dim>
					<dim>-1</dim>
					<dim>-1</dim>
				</port>
				<port id="1" precision="FP32">
					<dim>-1</dim>
					<dim>64</dim>
					<dim>-1</dim>
					<dim>-1</dim>
				</port>
			</input>
			<output>
				<port id="2" precision="FP32" names="299,input.73">
					<dim>-1</dim>
					<dim>64</dim>
					<dim>-1</dim>
					<dim>-1</dim>
				</port>
			</output>
		</layer>
		<layer id="169" name="self.RRDB_trunk.1.rdb2.conv1.weight_compressed" type="Const" version="opset1">
			<data element_type="f16" shape="32, 64, 3, 3" offset="1922050" size="36864" />
			<output>
				<port id="0" precision="FP16" names="self.RRDB_trunk.1.rdb2.conv1.weight">
					<dim>32</dim>
					<dim>64</dim>
					<dim>3</dim>
					<dim>3</dim>
				</port>
			</output>
		</layer>
		<layer id="170" name="self.RRDB_trunk.1.rdb2.conv1.weight" type="Convert" version="opset1">
			<data destination_type="f32" />
			<rt_info>
				<attribute name="decompression" version="0" />
			</rt_info>
			<input>
				<port id="0" precision="FP16">
					<dim>32</dim>
					<dim>64</dim>
					<dim>3</dim>
					<dim>3</dim>
				</port>
			</input>
			<output>
				<port id="1" precision="FP32">
					<dim>32</dim>
					<dim>64</dim>
					<dim>3</dim>
					<dim>3</dim>
				</port>
			</output>
		</layer>
		<layer id="171" name="__module.RRDB_trunk.1.rdb2.conv1/aten::_convolution/Convolution" type="Convolution" version="opset1">
			<data strides="1, 1" dilations="1, 1" pads_begin="1, 1" pads_end="1, 1" auto_pad="explicit" />
			<input>
				<port id="0" precision="FP32">
					<dim>-1</dim>
					<dim>64</dim>
					<dim>-1</dim>
					<dim>-1</dim>
				</port>
				<port id="1" precision="FP32">
					<dim>32</dim>
					<dim>64</dim>
					<dim>3</dim>
					<dim>3</dim>
				</port>
			</input>
			<output>
				<port id="2" precision="FP32">
					<dim>-1</dim>
					<dim>32</dim>
					<dim>-1</dim>
					<dim>-1</dim>
				</port>
			</output>
		</layer>
		<layer id="172" name="__module.RRDB_trunk.1.rdb2.conv1/aten::_convolution/Reshape_compressed" type="Const" version="opset1">
			<data element_type="f16" shape="1, 32, 1, 1" offset="1958914" size="64" />
			<output>
				<port id="0" precision="FP16">
					<dim>1</dim>
					<dim>32</dim>
					<dim>1</dim>
					<dim>1</dim>
				</port>
			</output>
		</layer>
		<layer id="173" name="__module.RRDB_trunk.1.rdb2.conv1/aten::_convolution/Reshape" type="Convert" version="opset1">
			<data destination_type="f32" />
			<rt_info>
				<attribute name="decompression" version="0" />
			</rt_info>
			<input>
				<port id="0" precision="FP16">
					<dim>1</dim>
					<dim>32</dim>
					<dim>1</dim>
					<dim>1</dim>
				</port>
			</input>
			<output>
				<port id="1" precision="FP32">
					<dim>1</dim>
					<dim>32</dim>
					<dim>1</dim>
					<dim>1</dim>
				</port>
			</output>
		</layer>
		<layer id="174" name="__module.RRDB_trunk.1.rdb2.conv1/aten::_convolution/Add" type="Add" version="opset1">
			<data auto_broadcast="numpy" />
			<input>
				<port id="0" precision="FP32">
					<dim>-1</dim>
					<dim>32</dim>
					<dim>-1</dim>
					<dim>-1</dim>
				</port>
				<port id="1" precision="FP32">
					<dim>1</dim>
					<dim>32</dim>
					<dim>1</dim>
					<dim>1</dim>
				</port>
			</input>
			<output>
				<port id="2" precision="FP32" names="312_1">
					<dim>-1</dim>
					<dim>32</dim>
					<dim>-1</dim>
					<dim>-1</dim>
				</port>
			</output>
		</layer>
		<layer id="175" name="__module.RRDB_trunk.1.rdb2.lrelu/aten::leaky_relu_/PRelu" type="PReLU" version="opset1">
			<input>
				<port id="0" precision="FP32">
					<dim>-1</dim>
					<dim>32</dim>
					<dim>-1</dim>
					<dim>-1</dim>
				</port>
				<port id="1" precision="FP32" />
			</input>
			<output>
				<port id="2" precision="FP32" names="312,input.75">
					<dim>-1</dim>
					<dim>32</dim>
					<dim>-1</dim>
					<dim>-1</dim>
				</port>
			</output>
		</layer>
		<layer id="176" name="__module.RRDB_trunk.1.rdb2/aten::cat/Concat" type="Concat" version="opset1">
			<data axis="1" />
			<input>
				<port id="0" precision="FP32">
					<dim>-1</dim>
					<dim>64</dim>
					<dim>-1</dim>
					<dim>-1</dim>
				</port>
				<port id="1" precision="FP32">
					<dim>-1</dim>
					<dim>32</dim>
					<dim>-1</dim>
					<dim>-1</dim>
				</port>
			</input>
			<output>
				<port id="2" precision="FP32" names="315,input.77">
					<dim>-1</dim>
					<dim>96</dim>
					<dim>-1</dim>
					<dim>-1</dim>
				</port>
			</output>
		</layer>
		<layer id="177" name="self.RRDB_trunk.1.rdb2.conv2.weight_compressed" type="Const" version="opset1">
			<data element_type="f16" shape="32, 96, 3, 3" offset="1958978" size="55296" />
			<output>
				<port id="0" precision="FP16" names="self.RRDB_trunk.1.rdb2.conv2.weight">
					<dim>32</dim>
					<dim>96</dim>
					<dim>3</dim>
					<dim>3</dim>
				</port>
			</output>
		</layer>
		<layer id="178" name="self.RRDB_trunk.1.rdb2.conv2.weight" type="Convert" version="opset1">
			<data destination_type="f32" />
			<rt_info>
				<attribute name="decompression" version="0" />
			</rt_info>
			<input>
				<port id="0" precision="FP16">
					<dim>32</dim>
					<dim>96</dim>
					<dim>3</dim>
					<dim>3</dim>
				</port>
			</input>
			<output>
				<port id="1" precision="FP32">
					<dim>32</dim>
					<dim>96</dim>
					<dim>3</dim>
					<dim>3</dim>
				</port>
			</output>
		</layer>
		<layer id="179" name="__module.RRDB_trunk.1.rdb2.conv2/aten::_convolution/Convolution" type="Convolution" version="opset1">
			<data strides="1, 1" dilations="1, 1" pads_begin="1, 1" pads_end="1, 1" auto_pad="explicit" />
			<input>
				<port id="0" precision="FP32">
					<dim>-1</dim>
					<dim>96</dim>
					<dim>-1</dim>
					<dim>-1</dim>
				</port>
				<port id="1" precision="FP32">
					<dim>32</dim>
					<dim>96</dim>
					<dim>3</dim>
					<dim>3</dim>
				</port>
			</input>
			<output>
				<port id="2" precision="FP32">
					<dim>-1</dim>
					<dim>32</dim>
					<dim>-1</dim>
					<dim>-1</dim>
				</port>
			</output>
		</layer>
		<layer id="180" name="__module.RRDB_trunk.1.rdb2.conv2/aten::_convolution/Reshape_compressed" type="Const" version="opset1">
			<data element_type="f16" shape="1, 32, 1, 1" offset="2014274" size="64" />
			<output>
				<port id="0" precision="FP16">
					<dim>1</dim>
					<dim>32</dim>
					<dim>1</dim>
					<dim>1</dim>
				</port>
			</output>
		</layer>
		<layer id="181" name="__module.RRDB_trunk.1.rdb2.conv2/aten::_convolution/Reshape" type="Convert" version="opset1">
			<data destination_type="f32" />
			<rt_info>
				<attribute name="decompression" version="0" />
			</rt_info>
			<input>
				<port id="0" precision="FP16">
					<dim>1</dim>
					<dim>32</dim>
					<dim>1</dim>
					<dim>1</dim>
				</port>
			</input>
			<output>
				<port id="1" precision="FP32">
					<dim>1</dim>
					<dim>32</dim>
					<dim>1</dim>
					<dim>1</dim>
				</port>
			</output>
		</layer>
		<layer id="182" name="__module.RRDB_trunk.1.rdb2.conv2/aten::_convolution/Add" type="Add" version="opset1">
			<data auto_broadcast="numpy" />
			<input>
				<port id="0" precision="FP32">
					<dim>-1</dim>
					<dim>32</dim>
					<dim>-1</dim>
					<dim>-1</dim>
				</port>
				<port id="1" precision="FP32">
					<dim>1</dim>
					<dim>32</dim>
					<dim>1</dim>
					<dim>1</dim>
				</port>
			</input>
			<output>
				<port id="2" precision="FP32" names="322_1">
					<dim>-1</dim>
					<dim>32</dim>
					<dim>-1</dim>
					<dim>-1</dim>
				</port>
			</output>
		</layer>
		<layer id="183" name="__module.RRDB_trunk.1.rdb2.lrelu/aten::leaky_relu_/PRelu_1" type="PReLU" version="opset1">
			<input>
				<port id="0" precision="FP32">
					<dim>-1</dim>
					<dim>32</dim>
					<dim>-1</dim>
					<dim>-1</dim>
				</port>
				<port id="1" precision="FP32" />
			</input>
			<output>
				<port id="2" precision="FP32" names="322,input.79">
					<dim>-1</dim>
					<dim>32</dim>
					<dim>-1</dim>
					<dim>-1</dim>
				</port>
			</output>
		</layer>
		<layer id="184" name="__module.RRDB_trunk.1.rdb2/aten::cat/Concat_1" type="Concat" version="opset1">
			<data axis="1" />
			<input>
				<port id="0" precision="FP32">
					<dim>-1</dim>
					<dim>64</dim>
					<dim>-1</dim>
					<dim>-1</dim>
				</port>
				<port id="1" precision="FP32">
					<dim>-1</dim>
					<dim>32</dim>
					<dim>-1</dim>
					<dim>-1</dim>
				</port>
				<port id="2" precision="FP32">
					<dim>-1</dim>
					<dim>32</dim>
					<dim>-1</dim>
					<dim>-1</dim>
				</port>
			</input>
			<output>
				<port id="3" precision="FP32" names="325,input.81">
					<dim>-1</dim>
					<dim>128</dim>
					<dim>-1</dim>
					<dim>-1</dim>
				</port>
			</output>
		</layer>
		<layer id="185" name="self.RRDB_trunk.1.rdb2.conv3.weight_compressed" type="Const" version="opset1">
			<data element_type="f16" shape="32, 128, 3, 3" offset="2014338" size="73728" />
			<output>
				<port id="0" precision="FP16" names="self.RRDB_trunk.1.rdb2.conv3.weight">
					<dim>32</dim>
					<dim>128</dim>
					<dim>3</dim>
					<dim>3</dim>
				</port>
			</output>
		</layer>
		<layer id="186" name="self.RRDB_trunk.1.rdb2.conv3.weight" type="Convert" version="opset1">
			<data destination_type="f32" />
			<rt_info>
				<attribute name="decompression" version="0" />
			</rt_info>
			<input>
				<port id="0" precision="FP16">
					<dim>32</dim>
					<dim>128</dim>
					<dim>3</dim>
					<dim>3</dim>
				</port>
			</input>
			<output>
				<port id="1" precision="FP32">
					<dim>32</dim>
					<dim>128</dim>
					<dim>3</dim>
					<dim>3</dim>
				</port>
			</output>
		</layer>
		<layer id="187" name="__module.RRDB_trunk.1.rdb2.conv3/aten::_convolution/Convolution" type="Convolution" version="opset1">
			<data strides="1, 1" dilations="1, 1" pads_begin="1, 1" pads_end="1, 1" auto_pad="explicit" />
			<input>
				<port id="0" precision="FP32">
					<dim>-1</dim>
					<dim>128</dim>
					<dim>-1</dim>
					<dim>-1</dim>
				</port>
				<port id="1" precision="FP32">
					<dim>32</dim>
					<dim>128</dim>
					<dim>3</dim>
					<dim>3</dim>
				</port>
			</input>
			<output>
				<port id="2" precision="FP32">
					<dim>-1</dim>
					<dim>32</dim>
					<dim>-1</dim>
					<dim>-1</dim>
				</port>
			</output>
		</layer>
		<layer id="188" name="__module.RRDB_trunk.1.rdb2.conv3/aten::_convolution/Reshape_compressed" type="Const" version="opset1">
			<data element_type="f16" shape="1, 32, 1, 1" offset="2088066" size="64" />
			<output>
				<port id="0" precision="FP16">
					<dim>1</dim>
					<dim>32</dim>
					<dim>1</dim>
					<dim>1</dim>
				</port>
			</output>
		</layer>
		<layer id="189" name="__module.RRDB_trunk.1.rdb2.conv3/aten::_convolution/Reshape" type="Convert" version="opset1">
			<data destination_type="f32" />
			<rt_info>
				<attribute name="decompression" version="0" />
			</rt_info>
			<input>
				<port id="0" precision="FP16">
					<dim>1</dim>
					<dim>32</dim>
					<dim>1</dim>
					<dim>1</dim>
				</port>
			</input>
			<output>
				<port id="1" precision="FP32">
					<dim>1</dim>
					<dim>32</dim>
					<dim>1</dim>
					<dim>1</dim>
				</port>
			</output>
		</layer>
		<layer id="190" name="__module.RRDB_trunk.1.rdb2.conv3/aten::_convolution/Add" type="Add" version="opset1">
			<data auto_broadcast="numpy" />
			<input>
				<port id="0" precision="FP32">
					<dim>-1</dim>
					<dim>32</dim>
					<dim>-1</dim>
					<dim>-1</dim>
				</port>
				<port id="1" precision="FP32">
					<dim>1</dim>
					<dim>32</dim>
					<dim>1</dim>
					<dim>1</dim>
				</port>
			</input>
			<output>
				<port id="2" precision="FP32" names="332_1">
					<dim>-1</dim>
					<dim>32</dim>
					<dim>-1</dim>
					<dim>-1</dim>
				</port>
			</output>
		</layer>
		<layer id="191" name="__module.RRDB_trunk.1.rdb2.lrelu/aten::leaky_relu_/PRelu_2" type="PReLU" version="opset1">
			<input>
				<port id="0" precision="FP32">
					<dim>-1</dim>
					<dim>32</dim>
					<dim>-1</dim>
					<dim>-1</dim>
				</port>
				<port id="1" precision="FP32" />
			</input>
			<output>
				<port id="2" precision="FP32" names="332,input.83">
					<dim>-1</dim>
					<dim>32</dim>
					<dim>-1</dim>
					<dim>-1</dim>
				</port>
			</output>
		</layer>
		<layer id="192" name="__module.RRDB_trunk.1.rdb2/aten::cat/Concat_2" type="Concat" version="opset1">
			<data axis="1" />
			<input>
				<port id="0" precision="FP32">
					<dim>-1</dim>
					<dim>64</dim>
					<dim>-1</dim>
					<dim>-1</dim>
				</port>
				<port id="1" precision="FP32">
					<dim>-1</dim>
					<dim>32</dim>
					<dim>-1</dim>
					<dim>-1</dim>
				</port>
				<port id="2" precision="FP32">
					<dim>-1</dim>
					<dim>32</dim>
					<dim>-1</dim>
					<dim>-1</dim>
				</port>
				<port id="3" precision="FP32">
					<dim>-1</dim>
					<dim>32</dim>
					<dim>-1</dim>
					<dim>-1</dim>
				</port>
			</input>
			<output>
				<port id="4" precision="FP32" names="335,input.85">
					<dim>-1</dim>
					<dim>160</dim>
					<dim>-1</dim>
					<dim>-1</dim>
				</port>
			</output>
		</layer>
		<layer id="193" name="self.RRDB_trunk.1.rdb2.conv4.weight_compressed" type="Const" version="opset1">
			<data element_type="f16" shape="32, 160, 3, 3" offset="2088130" size="92160" />
			<output>
				<port id="0" precision="FP16" names="self.RRDB_trunk.1.rdb2.conv4.weight">
					<dim>32</dim>
					<dim>160</dim>
					<dim>3</dim>
					<dim>3</dim>
				</port>
			</output>
		</layer>
		<layer id="194" name="self.RRDB_trunk.1.rdb2.conv4.weight" type="Convert" version="opset1">
			<data destination_type="f32" />
			<rt_info>
				<attribute name="decompression" version="0" />
			</rt_info>
			<input>
				<port id="0" precision="FP16">
					<dim>32</dim>
					<dim>160</dim>
					<dim>3</dim>
					<dim>3</dim>
				</port>
			</input>
			<output>
				<port id="1" precision="FP32">
					<dim>32</dim>
					<dim>160</dim>
					<dim>3</dim>
					<dim>3</dim>
				</port>
			</output>
		</layer>
		<layer id="195" name="__module.RRDB_trunk.1.rdb2.conv4/aten::_convolution/Convolution" type="Convolution" version="opset1">
			<data strides="1, 1" dilations="1, 1" pads_begin="1, 1" pads_end="1, 1" auto_pad="explicit" />
			<input>
				<port id="0" precision="FP32">
					<dim>-1</dim>
					<dim>160</dim>
					<dim>-1</dim>
					<dim>-1</dim>
				</port>
				<port id="1" precision="FP32">
					<dim>32</dim>
					<dim>160</dim>
					<dim>3</dim>
					<dim>3</dim>
				</port>
			</input>
			<output>
				<port id="2" precision="FP32">
					<dim>-1</dim>
					<dim>32</dim>
					<dim>-1</dim>
					<dim>-1</dim>
				</port>
			</output>
		</layer>
		<layer id="196" name="__module.RRDB_trunk.1.rdb2.conv4/aten::_convolution/Reshape_compressed" type="Const" version="opset1">
			<data element_type="f16" shape="1, 32, 1, 1" offset="2180290" size="64" />
			<output>
				<port id="0" precision="FP16">
					<dim>1</dim>
					<dim>32</dim>
					<dim>1</dim>
					<dim>1</dim>
				</port>
			</output>
		</layer>
		<layer id="197" name="__module.RRDB_trunk.1.rdb2.conv4/aten::_convolution/Reshape" type="Convert" version="opset1">
			<data destination_type="f32" />
			<rt_info>
				<attribute name="decompression" version="0" />
			</rt_info>
			<input>
				<port id="0" precision="FP16">
					<dim>1</dim>
					<dim>32</dim>
					<dim>1</dim>
					<dim>1</dim>
				</port>
			</input>
			<output>
				<port id="1" precision="FP32">
					<dim>1</dim>
					<dim>32</dim>
					<dim>1</dim>
					<dim>1</dim>
				</port>
			</output>
		</layer>
		<layer id="198" name="__module.RRDB_trunk.1.rdb2.conv4/aten::_convolution/Add" type="Add" version="opset1">
			<data auto_broadcast="numpy" />
			<input>
				<port id="0" precision="FP32">
					<dim>-1</dim>
					<dim>32</dim>
					<dim>-1</dim>
					<dim>-1</dim>
				</port>
				<port id="1" precision="FP32">
					<dim>1</dim>
					<dim>32</dim>
					<dim>1</dim>
					<dim>1</dim>
				</port>
			</input>
			<output>
				<port id="2" precision="FP32" names="342_1">
					<dim>-1</dim>
					<dim>32</dim>
					<dim>-1</dim>
					<dim>-1</dim>
				</port>
			</output>
		</layer>
		<layer id="199" name="__module.RRDB_trunk.1.rdb2.lrelu/aten::leaky_relu_/PRelu_3" type="PReLU" version="opset1">
			<input>
				<port id="0" precision="FP32">
					<dim>-1</dim>
					<dim>32</dim>
					<dim>-1</dim>
					<dim>-1</dim>
				</port>
				<port id="1" precision="FP32" />
			</input>
			<output>
				<port id="2" precision="FP32" names="342,input.87">
					<dim>-1</dim>
					<dim>32</dim>
					<dim>-1</dim>
					<dim>-1</dim>
				</port>
			</output>
		</layer>
		<layer id="200" name="__module.RRDB_trunk.1.rdb2/aten::cat/Concat_3" type="Concat" version="opset1">
			<data axis="1" />
			<input>
				<port id="0" precision="FP32">
					<dim>-1</dim>
					<dim>64</dim>
					<dim>-1</dim>
					<dim>-1</dim>
				</port>
				<port id="1" precision="FP32">
					<dim>-1</dim>
					<dim>32</dim>
					<dim>-1</dim>
					<dim>-1</dim>
				</port>
				<port id="2" precision="FP32">
					<dim>-1</dim>
					<dim>32</dim>
					<dim>-1</dim>
					<dim>-1</dim>
				</port>
				<port id="3" precision="FP32">
					<dim>-1</dim>
					<dim>32</dim>
					<dim>-1</dim>
					<dim>-1</dim>
				</port>
				<port id="4" precision="FP32">
					<dim>-1</dim>
					<dim>32</dim>
					<dim>-1</dim>
					<dim>-1</dim>
				</port>
			</input>
			<output>
				<port id="5" precision="FP32" names="345,input.89">
					<dim>-1</dim>
					<dim>192</dim>
					<dim>-1</dim>
					<dim>-1</dim>
				</port>
			</output>
		</layer>
		<layer id="201" name="Multiply_34821_compressed" type="Const" version="opset1">
			<data element_type="f16" shape="64, 192, 3, 3" offset="2180354" size="221184" />
			<output>
				<port id="0" precision="FP16">
					<dim>64</dim>
					<dim>192</dim>
					<dim>3</dim>
					<dim>3</dim>
				</port>
			</output>
		</layer>
		<layer id="202" name="Multiply_34821" type="Convert" version="opset1">
			<data destination_type="f32" />
			<rt_info>
				<attribute name="decompression" version="0" />
			</rt_info>
			<input>
				<port id="0" precision="FP16">
					<dim>64</dim>
					<dim>192</dim>
					<dim>3</dim>
					<dim>3</dim>
				</port>
			</input>
			<output>
				<port id="1" precision="FP32">
					<dim>64</dim>
					<dim>192</dim>
					<dim>3</dim>
					<dim>3</dim>
				</port>
			</output>
		</layer>
		<layer id="203" name="Multiply_34553" type="Convolution" version="opset1">
			<data strides="1, 1" dilations="1, 1" pads_begin="1, 1" pads_end="1, 1" auto_pad="explicit" />
			<input>
				<port id="0" precision="FP32">
					<dim>-1</dim>
					<dim>192</dim>
					<dim>-1</dim>
					<dim>-1</dim>
				</port>
				<port id="1" precision="FP32">
					<dim>64</dim>
					<dim>192</dim>
					<dim>3</dim>
					<dim>3</dim>
				</port>
			</input>
			<output>
				<port id="2" precision="FP32">
					<dim>-1</dim>
					<dim>64</dim>
					<dim>-1</dim>
					<dim>-1</dim>
				</port>
			</output>
		</layer>
		<layer id="204" name="Constant_34555_compressed" type="Const" version="opset1">
			<data element_type="f16" shape="1, 64, 1, 1" offset="2401538" size="128" />
			<output>
				<port id="0" precision="FP16">
					<dim>1</dim>
					<dim>64</dim>
					<dim>1</dim>
					<dim>1</dim>
				</port>
			</output>
		</layer>
		<layer id="205" name="Constant_34555" type="Convert" version="opset1">
			<data destination_type="f32" />
			<rt_info>
				<attribute name="decompression" version="0" />
			</rt_info>
			<input>
				<port id="0" precision="FP16">
					<dim>1</dim>
					<dim>64</dim>
					<dim>1</dim>
					<dim>1</dim>
				</port>
			</input>
			<output>
				<port id="1" precision="FP32">
					<dim>1</dim>
					<dim>64</dim>
					<dim>1</dim>
					<dim>1</dim>
				</port>
			</output>
		</layer>
		<layer id="206" name="__module.RRDB_trunk.1.rdb2/aten::mul/Multiply" type="Add" version="opset1">
			<data auto_broadcast="numpy" />
			<input>
				<port id="0" precision="FP32">
					<dim>-1</dim>
					<dim>64</dim>
					<dim>-1</dim>
					<dim>-1</dim>
				</port>
				<port id="1" precision="FP32">
					<dim>1</dim>
					<dim>64</dim>
					<dim>1</dim>
					<dim>1</dim>
				</port>
			</input>
			<output>
				<port id="2" precision="FP32" names="353">
					<dim>-1</dim>
					<dim>64</dim>
					<dim>-1</dim>
					<dim>-1</dim>
				</port>
			</output>
		</layer>
		<layer id="207" name="__module.RRDB_trunk.1.rdb2/aten::add/Add" type="Add" version="opset1">
			<data auto_broadcast="numpy" />
			<input>
				<port id="0" precision="FP32">
					<dim>-1</dim>
					<dim>64</dim>
					<dim>-1</dim>
					<dim>-1</dim>
				</port>
				<port id="1" precision="FP32">
					<dim>-1</dim>
					<dim>64</dim>
					<dim>-1</dim>
					<dim>-1</dim>
				</port>
			</input>
			<output>
				<port id="2" precision="FP32" names="354,input.91">
					<dim>-1</dim>
					<dim>64</dim>
					<dim>-1</dim>
					<dim>-1</dim>
				</port>
			</output>
		</layer>
		<layer id="208" name="self.RRDB_trunk.1.rdb3.conv1.weight_compressed" type="Const" version="opset1">
			<data element_type="f16" shape="32, 64, 3, 3" offset="2401666" size="36864" />
			<output>
				<port id="0" precision="FP16" names="self.RRDB_trunk.1.rdb3.conv1.weight">
					<dim>32</dim>
					<dim>64</dim>
					<dim>3</dim>
					<dim>3</dim>
				</port>
			</output>
		</layer>
		<layer id="209" name="self.RRDB_trunk.1.rdb3.conv1.weight" type="Convert" version="opset1">
			<data destination_type="f32" />
			<rt_info>
				<attribute name="decompression" version="0" />
			</rt_info>
			<input>
				<port id="0" precision="FP16">
					<dim>32</dim>
					<dim>64</dim>
					<dim>3</dim>
					<dim>3</dim>
				</port>
			</input>
			<output>
				<port id="1" precision="FP32">
					<dim>32</dim>
					<dim>64</dim>
					<dim>3</dim>
					<dim>3</dim>
				</port>
			</output>
		</layer>
		<layer id="210" name="__module.RRDB_trunk.1.rdb3.conv1/aten::_convolution/Convolution" type="Convolution" version="opset1">
			<data strides="1, 1" dilations="1, 1" pads_begin="1, 1" pads_end="1, 1" auto_pad="explicit" />
			<input>
				<port id="0" precision="FP32">
					<dim>-1</dim>
					<dim>64</dim>
					<dim>-1</dim>
					<dim>-1</dim>
				</port>
				<port id="1" precision="FP32">
					<dim>32</dim>
					<dim>64</dim>
					<dim>3</dim>
					<dim>3</dim>
				</port>
			</input>
			<output>
				<port id="2" precision="FP32">
					<dim>-1</dim>
					<dim>32</dim>
					<dim>-1</dim>
					<dim>-1</dim>
				</port>
			</output>
		</layer>
		<layer id="211" name="__module.RRDB_trunk.1.rdb3.conv1/aten::_convolution/Reshape_compressed" type="Const" version="opset1">
			<data element_type="f16" shape="1, 32, 1, 1" offset="2438530" size="64" />
			<output>
				<port id="0" precision="FP16">
					<dim>1</dim>
					<dim>32</dim>
					<dim>1</dim>
					<dim>1</dim>
				</port>
			</output>
		</layer>
		<layer id="212" name="__module.RRDB_trunk.1.rdb3.conv1/aten::_convolution/Reshape" type="Convert" version="opset1">
			<data destination_type="f32" />
			<rt_info>
				<attribute name="decompression" version="0" />
			</rt_info>
			<input>
				<port id="0" precision="FP16">
					<dim>1</dim>
					<dim>32</dim>
					<dim>1</dim>
					<dim>1</dim>
				</port>
			</input>
			<output>
				<port id="1" precision="FP32">
					<dim>1</dim>
					<dim>32</dim>
					<dim>1</dim>
					<dim>1</dim>
				</port>
			</output>
		</layer>
		<layer id="213" name="__module.RRDB_trunk.1.rdb3.conv1/aten::_convolution/Add" type="Add" version="opset1">
			<data auto_broadcast="numpy" />
			<input>
				<port id="0" precision="FP32">
					<dim>-1</dim>
					<dim>32</dim>
					<dim>-1</dim>
					<dim>-1</dim>
				</port>
				<port id="1" precision="FP32">
					<dim>1</dim>
					<dim>32</dim>
					<dim>1</dim>
					<dim>1</dim>
				</port>
			</input>
			<output>
				<port id="2" precision="FP32" names="367_1">
					<dim>-1</dim>
					<dim>32</dim>
					<dim>-1</dim>
					<dim>-1</dim>
				</port>
			</output>
		</layer>
		<layer id="214" name="__module.RRDB_trunk.1.rdb3.lrelu/aten::leaky_relu_/PRelu" type="PReLU" version="opset1">
			<input>
				<port id="0" precision="FP32">
					<dim>-1</dim>
					<dim>32</dim>
					<dim>-1</dim>
					<dim>-1</dim>
				</port>
				<port id="1" precision="FP32" />
			</input>
			<output>
				<port id="2" precision="FP32" names="367,input.93">
					<dim>-1</dim>
					<dim>32</dim>
					<dim>-1</dim>
					<dim>-1</dim>
				</port>
			</output>
		</layer>
		<layer id="215" name="__module.RRDB_trunk.1.rdb3/aten::cat/Concat" type="Concat" version="opset1">
			<data axis="1" />
			<input>
				<port id="0" precision="FP32">
					<dim>-1</dim>
					<dim>64</dim>
					<dim>-1</dim>
					<dim>-1</dim>
				</port>
				<port id="1" precision="FP32">
					<dim>-1</dim>
					<dim>32</dim>
					<dim>-1</dim>
					<dim>-1</dim>
				</port>
			</input>
			<output>
				<port id="2" precision="FP32" names="370,input.95">
					<dim>-1</dim>
					<dim>96</dim>
					<dim>-1</dim>
					<dim>-1</dim>
				</port>
			</output>
		</layer>
		<layer id="216" name="self.RRDB_trunk.1.rdb3.conv2.weight_compressed" type="Const" version="opset1">
			<data element_type="f16" shape="32, 96, 3, 3" offset="2438594" size="55296" />
			<output>
				<port id="0" precision="FP16" names="self.RRDB_trunk.1.rdb3.conv2.weight">
					<dim>32</dim>
					<dim>96</dim>
					<dim>3</dim>
					<dim>3</dim>
				</port>
			</output>
		</layer>
		<layer id="217" name="self.RRDB_trunk.1.rdb3.conv2.weight" type="Convert" version="opset1">
			<data destination_type="f32" />
			<rt_info>
				<attribute name="decompression" version="0" />
			</rt_info>
			<input>
				<port id="0" precision="FP16">
					<dim>32</dim>
					<dim>96</dim>
					<dim>3</dim>
					<dim>3</dim>
				</port>
			</input>
			<output>
				<port id="1" precision="FP32">
					<dim>32</dim>
					<dim>96</dim>
					<dim>3</dim>
					<dim>3</dim>
				</port>
			</output>
		</layer>
		<layer id="218" name="__module.RRDB_trunk.1.rdb3.conv2/aten::_convolution/Convolution" type="Convolution" version="opset1">
			<data strides="1, 1" dilations="1, 1" pads_begin="1, 1" pads_end="1, 1" auto_pad="explicit" />
			<input>
				<port id="0" precision="FP32">
					<dim>-1</dim>
					<dim>96</dim>
					<dim>-1</dim>
					<dim>-1</dim>
				</port>
				<port id="1" precision="FP32">
					<dim>32</dim>
					<dim>96</dim>
					<dim>3</dim>
					<dim>3</dim>
				</port>
			</input>
			<output>
				<port id="2" precision="FP32">
					<dim>-1</dim>
					<dim>32</dim>
					<dim>-1</dim>
					<dim>-1</dim>
				</port>
			</output>
		</layer>
		<layer id="219" name="__module.RRDB_trunk.1.rdb3.conv2/aten::_convolution/Reshape_compressed" type="Const" version="opset1">
			<data element_type="f16" shape="1, 32, 1, 1" offset="2493890" size="64" />
			<output>
				<port id="0" precision="FP16">
					<dim>1</dim>
					<dim>32</dim>
					<dim>1</dim>
					<dim>1</dim>
				</port>
			</output>
		</layer>
		<layer id="220" name="__module.RRDB_trunk.1.rdb3.conv2/aten::_convolution/Reshape" type="Convert" version="opset1">
			<data destination_type="f32" />
			<rt_info>
				<attribute name="decompression" version="0" />
			</rt_info>
			<input>
				<port id="0" precision="FP16">
					<dim>1</dim>
					<dim>32</dim>
					<dim>1</dim>
					<dim>1</dim>
				</port>
			</input>
			<output>
				<port id="1" precision="FP32">
					<dim>1</dim>
					<dim>32</dim>
					<dim>1</dim>
					<dim>1</dim>
				</port>
			</output>
		</layer>
		<layer id="221" name="__module.RRDB_trunk.1.rdb3.conv2/aten::_convolution/Add" type="Add" version="opset1">
			<data auto_broadcast="numpy" />
			<input>
				<port id="0" precision="FP32">
					<dim>-1</dim>
					<dim>32</dim>
					<dim>-1</dim>
					<dim>-1</dim>
				</port>
				<port id="1" precision="FP32">
					<dim>1</dim>
					<dim>32</dim>
					<dim>1</dim>
					<dim>1</dim>
				</port>
			</input>
			<output>
				<port id="2" precision="FP32" names="377_1">
					<dim>-1</dim>
					<dim>32</dim>
					<dim>-1</dim>
					<dim>-1</dim>
				</port>
			</output>
		</layer>
		<layer id="222" name="__module.RRDB_trunk.1.rdb3.lrelu/aten::leaky_relu_/PRelu_1" type="PReLU" version="opset1">
			<input>
				<port id="0" precision="FP32">
					<dim>-1</dim>
					<dim>32</dim>
					<dim>-1</dim>
					<dim>-1</dim>
				</port>
				<port id="1" precision="FP32" />
			</input>
			<output>
				<port id="2" precision="FP32" names="377,input.97">
					<dim>-1</dim>
					<dim>32</dim>
					<dim>-1</dim>
					<dim>-1</dim>
				</port>
			</output>
		</layer>
		<layer id="223" name="__module.RRDB_trunk.1.rdb3/aten::cat/Concat_1" type="Concat" version="opset1">
			<data axis="1" />
			<input>
				<port id="0" precision="FP32">
					<dim>-1</dim>
					<dim>64</dim>
					<dim>-1</dim>
					<dim>-1</dim>
				</port>
				<port id="1" precision="FP32">
					<dim>-1</dim>
					<dim>32</dim>
					<dim>-1</dim>
					<dim>-1</dim>
				</port>
				<port id="2" precision="FP32">
					<dim>-1</dim>
					<dim>32</dim>
					<dim>-1</dim>
					<dim>-1</dim>
				</port>
			</input>
			<output>
				<port id="3" precision="FP32" names="380,input.99">
					<dim>-1</dim>
					<dim>128</dim>
					<dim>-1</dim>
					<dim>-1</dim>
				</port>
			</output>
		</layer>
		<layer id="224" name="self.RRDB_trunk.1.rdb3.conv3.weight_compressed" type="Const" version="opset1">
			<data element_type="f16" shape="32, 128, 3, 3" offset="2493954" size="73728" />
			<output>
				<port id="0" precision="FP16" names="self.RRDB_trunk.1.rdb3.conv3.weight">
					<dim>32</dim>
					<dim>128</dim>
					<dim>3</dim>
					<dim>3</dim>
				</port>
			</output>
		</layer>
		<layer id="225" name="self.RRDB_trunk.1.rdb3.conv3.weight" type="Convert" version="opset1">
			<data destination_type="f32" />
			<rt_info>
				<attribute name="decompression" version="0" />
			</rt_info>
			<input>
				<port id="0" precision="FP16">
					<dim>32</dim>
					<dim>128</dim>
					<dim>3</dim>
					<dim>3</dim>
				</port>
			</input>
			<output>
				<port id="1" precision="FP32">
					<dim>32</dim>
					<dim>128</dim>
					<dim>3</dim>
					<dim>3</dim>
				</port>
			</output>
		</layer>
		<layer id="226" name="__module.RRDB_trunk.1.rdb3.conv3/aten::_convolution/Convolution" type="Convolution" version="opset1">
			<data strides="1, 1" dilations="1, 1" pads_begin="1, 1" pads_end="1, 1" auto_pad="explicit" />
			<input>
				<port id="0" precision="FP32">
					<dim>-1</dim>
					<dim>128</dim>
					<dim>-1</dim>
					<dim>-1</dim>
				</port>
				<port id="1" precision="FP32">
					<dim>32</dim>
					<dim>128</dim>
					<dim>3</dim>
					<dim>3</dim>
				</port>
			</input>
			<output>
				<port id="2" precision="FP32">
					<dim>-1</dim>
					<dim>32</dim>
					<dim>-1</dim>
					<dim>-1</dim>
				</port>
			</output>
		</layer>
		<layer id="227" name="__module.RRDB_trunk.1.rdb3.conv3/aten::_convolution/Reshape_compressed" type="Const" version="opset1">
			<data element_type="f16" shape="1, 32, 1, 1" offset="2567682" size="64" />
			<output>
				<port id="0" precision="FP16">
					<dim>1</dim>
					<dim>32</dim>
					<dim>1</dim>
					<dim>1</dim>
				</port>
			</output>
		</layer>
		<layer id="228" name="__module.RRDB_trunk.1.rdb3.conv3/aten::_convolution/Reshape" type="Convert" version="opset1">
			<data destination_type="f32" />
			<rt_info>
				<attribute name="decompression" version="0" />
			</rt_info>
			<input>
				<port id="0" precision="FP16">
					<dim>1</dim>
					<dim>32</dim>
					<dim>1</dim>
					<dim>1</dim>
				</port>
			</input>
			<output>
				<port id="1" precision="FP32">
					<dim>1</dim>
					<dim>32</dim>
					<dim>1</dim>
					<dim>1</dim>
				</port>
			</output>
		</layer>
		<layer id="229" name="__module.RRDB_trunk.1.rdb3.conv3/aten::_convolution/Add" type="Add" version="opset1">
			<data auto_broadcast="numpy" />
			<input>
				<port id="0" precision="FP32">
					<dim>-1</dim>
					<dim>32</dim>
					<dim>-1</dim>
					<dim>-1</dim>
				</port>
				<port id="1" precision="FP32">
					<dim>1</dim>
					<dim>32</dim>
					<dim>1</dim>
					<dim>1</dim>
				</port>
			</input>
			<output>
				<port id="2" precision="FP32" names="387_1">
					<dim>-1</dim>
					<dim>32</dim>
					<dim>-1</dim>
					<dim>-1</dim>
				</port>
			</output>
		</layer>
		<layer id="230" name="__module.RRDB_trunk.1.rdb3.lrelu/aten::leaky_relu_/PRelu_2" type="PReLU" version="opset1">
			<input>
				<port id="0" precision="FP32">
					<dim>-1</dim>
					<dim>32</dim>
					<dim>-1</dim>
					<dim>-1</dim>
				</port>
				<port id="1" precision="FP32" />
			</input>
			<output>
				<port id="2" precision="FP32" names="387,input.101">
					<dim>-1</dim>
					<dim>32</dim>
					<dim>-1</dim>
					<dim>-1</dim>
				</port>
			</output>
		</layer>
		<layer id="231" name="__module.RRDB_trunk.1.rdb3/aten::cat/Concat_2" type="Concat" version="opset1">
			<data axis="1" />
			<input>
				<port id="0" precision="FP32">
					<dim>-1</dim>
					<dim>64</dim>
					<dim>-1</dim>
					<dim>-1</dim>
				</port>
				<port id="1" precision="FP32">
					<dim>-1</dim>
					<dim>32</dim>
					<dim>-1</dim>
					<dim>-1</dim>
				</port>
				<port id="2" precision="FP32">
					<dim>-1</dim>
					<dim>32</dim>
					<dim>-1</dim>
					<dim>-1</dim>
				</port>
				<port id="3" precision="FP32">
					<dim>-1</dim>
					<dim>32</dim>
					<dim>-1</dim>
					<dim>-1</dim>
				</port>
			</input>
			<output>
				<port id="4" precision="FP32" names="390,input.103">
					<dim>-1</dim>
					<dim>160</dim>
					<dim>-1</dim>
					<dim>-1</dim>
				</port>
			</output>
		</layer>
		<layer id="232" name="self.RRDB_trunk.1.rdb3.conv4.weight_compressed" type="Const" version="opset1">
			<data element_type="f16" shape="32, 160, 3, 3" offset="2567746" size="92160" />
			<output>
				<port id="0" precision="FP16" names="self.RRDB_trunk.1.rdb3.conv4.weight">
					<dim>32</dim>
					<dim>160</dim>
					<dim>3</dim>
					<dim>3</dim>
				</port>
			</output>
		</layer>
		<layer id="233" name="self.RRDB_trunk.1.rdb3.conv4.weight" type="Convert" version="opset1">
			<data destination_type="f32" />
			<rt_info>
				<attribute name="decompression" version="0" />
			</rt_info>
			<input>
				<port id="0" precision="FP16">
					<dim>32</dim>
					<dim>160</dim>
					<dim>3</dim>
					<dim>3</dim>
				</port>
			</input>
			<output>
				<port id="1" precision="FP32">
					<dim>32</dim>
					<dim>160</dim>
					<dim>3</dim>
					<dim>3</dim>
				</port>
			</output>
		</layer>
		<layer id="234" name="__module.RRDB_trunk.1.rdb3.conv4/aten::_convolution/Convolution" type="Convolution" version="opset1">
			<data strides="1, 1" dilations="1, 1" pads_begin="1, 1" pads_end="1, 1" auto_pad="explicit" />
			<input>
				<port id="0" precision="FP32">
					<dim>-1</dim>
					<dim>160</dim>
					<dim>-1</dim>
					<dim>-1</dim>
				</port>
				<port id="1" precision="FP32">
					<dim>32</dim>
					<dim>160</dim>
					<dim>3</dim>
					<dim>3</dim>
				</port>
			</input>
			<output>
				<port id="2" precision="FP32">
					<dim>-1</dim>
					<dim>32</dim>
					<dim>-1</dim>
					<dim>-1</dim>
				</port>
			</output>
		</layer>
		<layer id="235" name="__module.RRDB_trunk.1.rdb3.conv4/aten::_convolution/Reshape_compressed" type="Const" version="opset1">
			<data element_type="f16" shape="1, 32, 1, 1" offset="2659906" size="64" />
			<output>
				<port id="0" precision="FP16">
					<dim>1</dim>
					<dim>32</dim>
					<dim>1</dim>
					<dim>1</dim>
				</port>
			</output>
		</layer>
		<layer id="236" name="__module.RRDB_trunk.1.rdb3.conv4/aten::_convolution/Reshape" type="Convert" version="opset1">
			<data destination_type="f32" />
			<rt_info>
				<attribute name="decompression" version="0" />
			</rt_info>
			<input>
				<port id="0" precision="FP16">
					<dim>1</dim>
					<dim>32</dim>
					<dim>1</dim>
					<dim>1</dim>
				</port>
			</input>
			<output>
				<port id="1" precision="FP32">
					<dim>1</dim>
					<dim>32</dim>
					<dim>1</dim>
					<dim>1</dim>
				</port>
			</output>
		</layer>
		<layer id="237" name="__module.RRDB_trunk.1.rdb3.conv4/aten::_convolution/Add" type="Add" version="opset1">
			<data auto_broadcast="numpy" />
			<input>
				<port id="0" precision="FP32">
					<dim>-1</dim>
					<dim>32</dim>
					<dim>-1</dim>
					<dim>-1</dim>
				</port>
				<port id="1" precision="FP32">
					<dim>1</dim>
					<dim>32</dim>
					<dim>1</dim>
					<dim>1</dim>
				</port>
			</input>
			<output>
				<port id="2" precision="FP32" names="397_1">
					<dim>-1</dim>
					<dim>32</dim>
					<dim>-1</dim>
					<dim>-1</dim>
				</port>
			</output>
		</layer>
		<layer id="238" name="__module.RRDB_trunk.1.rdb3.lrelu/aten::leaky_relu_/PRelu_3" type="PReLU" version="opset1">
			<input>
				<port id="0" precision="FP32">
					<dim>-1</dim>
					<dim>32</dim>
					<dim>-1</dim>
					<dim>-1</dim>
				</port>
				<port id="1" precision="FP32" />
			</input>
			<output>
				<port id="2" precision="FP32" names="397,input.105">
					<dim>-1</dim>
					<dim>32</dim>
					<dim>-1</dim>
					<dim>-1</dim>
				</port>
			</output>
		</layer>
		<layer id="239" name="__module.RRDB_trunk.1.rdb3/aten::cat/Concat_3" type="Concat" version="opset1">
			<data axis="1" />
			<input>
				<port id="0" precision="FP32">
					<dim>-1</dim>
					<dim>64</dim>
					<dim>-1</dim>
					<dim>-1</dim>
				</port>
				<port id="1" precision="FP32">
					<dim>-1</dim>
					<dim>32</dim>
					<dim>-1</dim>
					<dim>-1</dim>
				</port>
				<port id="2" precision="FP32">
					<dim>-1</dim>
					<dim>32</dim>
					<dim>-1</dim>
					<dim>-1</dim>
				</port>
				<port id="3" precision="FP32">
					<dim>-1</dim>
					<dim>32</dim>
					<dim>-1</dim>
					<dim>-1</dim>
				</port>
				<port id="4" precision="FP32">
					<dim>-1</dim>
					<dim>32</dim>
					<dim>-1</dim>
					<dim>-1</dim>
				</port>
			</input>
			<output>
				<port id="5" precision="FP32" names="400,input.107">
					<dim>-1</dim>
					<dim>192</dim>
					<dim>-1</dim>
					<dim>-1</dim>
				</port>
			</output>
		</layer>
		<layer id="240" name="Multiply_34823_compressed" type="Const" version="opset1">
			<data element_type="f16" shape="64, 192, 3, 3" offset="2659970" size="221184" />
			<output>
				<port id="0" precision="FP16">
					<dim>64</dim>
					<dim>192</dim>
					<dim>3</dim>
					<dim>3</dim>
				</port>
			</output>
		</layer>
		<layer id="241" name="Multiply_34823" type="Convert" version="opset1">
			<data destination_type="f32" />
			<rt_info>
				<attribute name="decompression" version="0" />
			</rt_info>
			<input>
				<port id="0" precision="FP16">
					<dim>64</dim>
					<dim>192</dim>
					<dim>3</dim>
					<dim>3</dim>
				</port>
			</input>
			<output>
				<port id="1" precision="FP32">
					<dim>64</dim>
					<dim>192</dim>
					<dim>3</dim>
					<dim>3</dim>
				</port>
			</output>
		</layer>
		<layer id="242" name="Multiply_34557" type="Convolution" version="opset1">
			<data strides="1, 1" dilations="1, 1" pads_begin="1, 1" pads_end="1, 1" auto_pad="explicit" />
			<input>
				<port id="0" precision="FP32">
					<dim>-1</dim>
					<dim>192</dim>
					<dim>-1</dim>
					<dim>-1</dim>
				</port>
				<port id="1" precision="FP32">
					<dim>64</dim>
					<dim>192</dim>
					<dim>3</dim>
					<dim>3</dim>
				</port>
			</input>
			<output>
				<port id="2" precision="FP32">
					<dim>-1</dim>
					<dim>64</dim>
					<dim>-1</dim>
					<dim>-1</dim>
				</port>
			</output>
		</layer>
		<layer id="243" name="Constant_34559_compressed" type="Const" version="opset1">
			<data element_type="f16" shape="1, 64, 1, 1" offset="2881154" size="128" />
			<output>
				<port id="0" precision="FP16">
					<dim>1</dim>
					<dim>64</dim>
					<dim>1</dim>
					<dim>1</dim>
				</port>
			</output>
		</layer>
		<layer id="244" name="Constant_34559" type="Convert" version="opset1">
			<data destination_type="f32" />
			<rt_info>
				<attribute name="decompression" version="0" />
			</rt_info>
			<input>
				<port id="0" precision="FP16">
					<dim>1</dim>
					<dim>64</dim>
					<dim>1</dim>
					<dim>1</dim>
				</port>
			</input>
			<output>
				<port id="1" precision="FP32">
					<dim>1</dim>
					<dim>64</dim>
					<dim>1</dim>
					<dim>1</dim>
				</port>
			</output>
		</layer>
		<layer id="245" name="__module.RRDB_trunk.1.rdb3/aten::mul/Multiply" type="Add" version="opset1">
			<data auto_broadcast="numpy" />
			<input>
				<port id="0" precision="FP32">
					<dim>-1</dim>
					<dim>64</dim>
					<dim>-1</dim>
					<dim>-1</dim>
				</port>
				<port id="1" precision="FP32">
					<dim>1</dim>
					<dim>64</dim>
					<dim>1</dim>
					<dim>1</dim>
				</port>
			</input>
			<output>
				<port id="2" precision="FP32" names="408">
					<dim>-1</dim>
					<dim>64</dim>
					<dim>-1</dim>
					<dim>-1</dim>
				</port>
			</output>
		</layer>
		<layer id="246" name="__module.RRDB_trunk.1.rdb3/aten::add/Add" type="Add" version="opset1">
			<data auto_broadcast="numpy" />
			<input>
				<port id="0" precision="FP32">
					<dim>-1</dim>
					<dim>64</dim>
					<dim>-1</dim>
					<dim>-1</dim>
				</port>
				<port id="1" precision="FP32">
					<dim>-1</dim>
					<dim>64</dim>
					<dim>-1</dim>
					<dim>-1</dim>
				</port>
			</input>
			<output>
				<port id="2" precision="FP32" names="409,out.3">
					<dim>-1</dim>
					<dim>64</dim>
					<dim>-1</dim>
					<dim>-1</dim>
				</port>
			</output>
		</layer>
		<layer id="247" name="Constant_35029_compressed" type="Const" version="opset1">
			<data element_type="f16" shape="1, 1, 1, 1" offset="40512" size="2" />
			<output>
				<port id="0" precision="FP16">
					<dim>1</dim>
					<dim>1</dim>
					<dim>1</dim>
					<dim>1</dim>
				</port>
			</output>
		</layer>
		<layer id="248" name="Constant_35029" type="Convert" version="opset1">
			<data destination_type="f32" />
			<rt_info>
				<attribute name="decompression" version="0" />
			</rt_info>
			<input>
				<port id="0" precision="FP16">
					<dim>1</dim>
					<dim>1</dim>
					<dim>1</dim>
					<dim>1</dim>
				</port>
			</input>
			<output>
				<port id="1" precision="FP32">
					<dim>1</dim>
					<dim>1</dim>
					<dim>1</dim>
					<dim>1</dim>
				</port>
			</output>
		</layer>
		<layer id="249" name="__module.RRDB_trunk.1/aten::mul/Multiply" type="Multiply" version="opset1">
			<data auto_broadcast="numpy" />
			<input>
				<port id="0" precision="FP32">
					<dim>-1</dim>
					<dim>64</dim>
					<dim>-1</dim>
					<dim>-1</dim>
				</port>
				<port id="1" precision="FP32">
					<dim>1</dim>
					<dim>1</dim>
					<dim>1</dim>
					<dim>1</dim>
				</port>
			</input>
			<output>
				<port id="2" precision="FP32" names="410">
					<dim>-1</dim>
					<dim>64</dim>
					<dim>-1</dim>
					<dim>-1</dim>
				</port>
			</output>
		</layer>
		<layer id="250" name="__module.RRDB_trunk.1/aten::add/Add" type="Add" version="opset1">
			<data auto_broadcast="numpy" />
			<input>
				<port id="0" precision="FP32">
					<dim>-1</dim>
					<dim>64</dim>
					<dim>-1</dim>
					<dim>-1</dim>
				</port>
				<port id="1" precision="FP32">
					<dim>-1</dim>
					<dim>64</dim>
					<dim>-1</dim>
					<dim>-1</dim>
				</port>
			</input>
			<output>
				<port id="2" precision="FP32" names="411,input.109">
					<dim>-1</dim>
					<dim>64</dim>
					<dim>-1</dim>
					<dim>-1</dim>
				</port>
			</output>
		</layer>
		<layer id="251" name="self.RRDB_trunk.2.rdb1.conv1.weight_compressed" type="Const" version="opset1">
			<data element_type="f16" shape="32, 64, 3, 3" offset="2881282" size="36864" />
			<output>
				<port id="0" precision="FP16" names="self.RRDB_trunk.2.rdb1.conv1.weight">
					<dim>32</dim>
					<dim>64</dim>
					<dim>3</dim>
					<dim>3</dim>
				</port>
			</output>
		</layer>
		<layer id="252" name="self.RRDB_trunk.2.rdb1.conv1.weight" type="Convert" version="opset1">
			<data destination_type="f32" />
			<rt_info>
				<attribute name="decompression" version="0" />
			</rt_info>
			<input>
				<port id="0" precision="FP16">
					<dim>32</dim>
					<dim>64</dim>
					<dim>3</dim>
					<dim>3</dim>
				</port>
			</input>
			<output>
				<port id="1" precision="FP32">
					<dim>32</dim>
					<dim>64</dim>
					<dim>3</dim>
					<dim>3</dim>
				</port>
			</output>
		</layer>
		<layer id="253" name="__module.RRDB_trunk.2.rdb1.conv1/aten::_convolution/Convolution" type="Convolution" version="opset1">
			<data strides="1, 1" dilations="1, 1" pads_begin="1, 1" pads_end="1, 1" auto_pad="explicit" />
			<input>
				<port id="0" precision="FP32">
					<dim>-1</dim>
					<dim>64</dim>
					<dim>-1</dim>
					<dim>-1</dim>
				</port>
				<port id="1" precision="FP32">
					<dim>32</dim>
					<dim>64</dim>
					<dim>3</dim>
					<dim>3</dim>
				</port>
			</input>
			<output>
				<port id="2" precision="FP32">
					<dim>-1</dim>
					<dim>32</dim>
					<dim>-1</dim>
					<dim>-1</dim>
				</port>
			</output>
		</layer>
		<layer id="254" name="__module.RRDB_trunk.2.rdb1.conv1/aten::_convolution/Reshape_compressed" type="Const" version="opset1">
			<data element_type="f16" shape="1, 32, 1, 1" offset="2918146" size="64" />
			<output>
				<port id="0" precision="FP16">
					<dim>1</dim>
					<dim>32</dim>
					<dim>1</dim>
					<dim>1</dim>
				</port>
			</output>
		</layer>
		<layer id="255" name="__module.RRDB_trunk.2.rdb1.conv1/aten::_convolution/Reshape" type="Convert" version="opset1">
			<data destination_type="f32" />
			<rt_info>
				<attribute name="decompression" version="0" />
			</rt_info>
			<input>
				<port id="0" precision="FP16">
					<dim>1</dim>
					<dim>32</dim>
					<dim>1</dim>
					<dim>1</dim>
				</port>
			</input>
			<output>
				<port id="1" precision="FP32">
					<dim>1</dim>
					<dim>32</dim>
					<dim>1</dim>
					<dim>1</dim>
				</port>
			</output>
		</layer>
		<layer id="256" name="__module.RRDB_trunk.2.rdb1.conv1/aten::_convolution/Add" type="Add" version="opset1">
			<data auto_broadcast="numpy" />
			<input>
				<port id="0" precision="FP32">
					<dim>-1</dim>
					<dim>32</dim>
					<dim>-1</dim>
					<dim>-1</dim>
				</port>
				<port id="1" precision="FP32">
					<dim>1</dim>
					<dim>32</dim>
					<dim>1</dim>
					<dim>1</dim>
				</port>
			</input>
			<output>
				<port id="2" precision="FP32" names="427_1">
					<dim>-1</dim>
					<dim>32</dim>
					<dim>-1</dim>
					<dim>-1</dim>
				</port>
			</output>
		</layer>
		<layer id="257" name="__module.RRDB_trunk.2.rdb1.lrelu/aten::leaky_relu_/PRelu" type="PReLU" version="opset1">
			<input>
				<port id="0" precision="FP32">
					<dim>-1</dim>
					<dim>32</dim>
					<dim>-1</dim>
					<dim>-1</dim>
				</port>
				<port id="1" precision="FP32" />
			</input>
			<output>
				<port id="2" precision="FP32" names="427,input.111">
					<dim>-1</dim>
					<dim>32</dim>
					<dim>-1</dim>
					<dim>-1</dim>
				</port>
			</output>
		</layer>
		<layer id="258" name="__module.RRDB_trunk.2.rdb1/aten::cat/Concat" type="Concat" version="opset1">
			<data axis="1" />
			<input>
				<port id="0" precision="FP32">
					<dim>-1</dim>
					<dim>64</dim>
					<dim>-1</dim>
					<dim>-1</dim>
				</port>
				<port id="1" precision="FP32">
					<dim>-1</dim>
					<dim>32</dim>
					<dim>-1</dim>
					<dim>-1</dim>
				</port>
			</input>
			<output>
				<port id="2" precision="FP32" names="430,input.113">
					<dim>-1</dim>
					<dim>96</dim>
					<dim>-1</dim>
					<dim>-1</dim>
				</port>
			</output>
		</layer>
		<layer id="259" name="self.RRDB_trunk.2.rdb1.conv2.weight_compressed" type="Const" version="opset1">
			<data element_type="f16" shape="32, 96, 3, 3" offset="2918210" size="55296" />
			<output>
				<port id="0" precision="FP16" names="self.RRDB_trunk.2.rdb1.conv2.weight">
					<dim>32</dim>
					<dim>96</dim>
					<dim>3</dim>
					<dim>3</dim>
				</port>
			</output>
		</layer>
		<layer id="260" name="self.RRDB_trunk.2.rdb1.conv2.weight" type="Convert" version="opset1">
			<data destination_type="f32" />
			<rt_info>
				<attribute name="decompression" version="0" />
			</rt_info>
			<input>
				<port id="0" precision="FP16">
					<dim>32</dim>
					<dim>96</dim>
					<dim>3</dim>
					<dim>3</dim>
				</port>
			</input>
			<output>
				<port id="1" precision="FP32">
					<dim>32</dim>
					<dim>96</dim>
					<dim>3</dim>
					<dim>3</dim>
				</port>
			</output>
		</layer>
		<layer id="261" name="__module.RRDB_trunk.2.rdb1.conv2/aten::_convolution/Convolution" type="Convolution" version="opset1">
			<data strides="1, 1" dilations="1, 1" pads_begin="1, 1" pads_end="1, 1" auto_pad="explicit" />
			<input>
				<port id="0" precision="FP32">
					<dim>-1</dim>
					<dim>96</dim>
					<dim>-1</dim>
					<dim>-1</dim>
				</port>
				<port id="1" precision="FP32">
					<dim>32</dim>
					<dim>96</dim>
					<dim>3</dim>
					<dim>3</dim>
				</port>
			</input>
			<output>
				<port id="2" precision="FP32">
					<dim>-1</dim>
					<dim>32</dim>
					<dim>-1</dim>
					<dim>-1</dim>
				</port>
			</output>
		</layer>
		<layer id="262" name="__module.RRDB_trunk.2.rdb1.conv2/aten::_convolution/Reshape_compressed" type="Const" version="opset1">
			<data element_type="f16" shape="1, 32, 1, 1" offset="2973506" size="64" />
			<output>
				<port id="0" precision="FP16">
					<dim>1</dim>
					<dim>32</dim>
					<dim>1</dim>
					<dim>1</dim>
				</port>
			</output>
		</layer>
		<layer id="263" name="__module.RRDB_trunk.2.rdb1.conv2/aten::_convolution/Reshape" type="Convert" version="opset1">
			<data destination_type="f32" />
			<rt_info>
				<attribute name="decompression" version="0" />
			</rt_info>
			<input>
				<port id="0" precision="FP16">
					<dim>1</dim>
					<dim>32</dim>
					<dim>1</dim>
					<dim>1</dim>
				</port>
			</input>
			<output>
				<port id="1" precision="FP32">
					<dim>1</dim>
					<dim>32</dim>
					<dim>1</dim>
					<dim>1</dim>
				</port>
			</output>
		</layer>
		<layer id="264" name="__module.RRDB_trunk.2.rdb1.conv2/aten::_convolution/Add" type="Add" version="opset1">
			<data auto_broadcast="numpy" />
			<input>
				<port id="0" precision="FP32">
					<dim>-1</dim>
					<dim>32</dim>
					<dim>-1</dim>
					<dim>-1</dim>
				</port>
				<port id="1" precision="FP32">
					<dim>1</dim>
					<dim>32</dim>
					<dim>1</dim>
					<dim>1</dim>
				</port>
			</input>
			<output>
				<port id="2" precision="FP32" names="437_1">
					<dim>-1</dim>
					<dim>32</dim>
					<dim>-1</dim>
					<dim>-1</dim>
				</port>
			</output>
		</layer>
		<layer id="265" name="__module.RRDB_trunk.2.rdb1.lrelu/aten::leaky_relu_/PRelu_1" type="PReLU" version="opset1">
			<input>
				<port id="0" precision="FP32">
					<dim>-1</dim>
					<dim>32</dim>
					<dim>-1</dim>
					<dim>-1</dim>
				</port>
				<port id="1" precision="FP32" />
			</input>
			<output>
				<port id="2" precision="FP32" names="437,input.115">
					<dim>-1</dim>
					<dim>32</dim>
					<dim>-1</dim>
					<dim>-1</dim>
				</port>
			</output>
		</layer>
		<layer id="266" name="__module.RRDB_trunk.2.rdb1/aten::cat/Concat_1" type="Concat" version="opset1">
			<data axis="1" />
			<input>
				<port id="0" precision="FP32">
					<dim>-1</dim>
					<dim>64</dim>
					<dim>-1</dim>
					<dim>-1</dim>
				</port>
				<port id="1" precision="FP32">
					<dim>-1</dim>
					<dim>32</dim>
					<dim>-1</dim>
					<dim>-1</dim>
				</port>
				<port id="2" precision="FP32">
					<dim>-1</dim>
					<dim>32</dim>
					<dim>-1</dim>
					<dim>-1</dim>
				</port>
			</input>
			<output>
				<port id="3" precision="FP32" names="440,input.117">
					<dim>-1</dim>
					<dim>128</dim>
					<dim>-1</dim>
					<dim>-1</dim>
				</port>
			</output>
		</layer>
		<layer id="267" name="self.RRDB_trunk.2.rdb1.conv3.weight_compressed" type="Const" version="opset1">
			<data element_type="f16" shape="32, 128, 3, 3" offset="2973570" size="73728" />
			<output>
				<port id="0" precision="FP16" names="self.RRDB_trunk.2.rdb1.conv3.weight">
					<dim>32</dim>
					<dim>128</dim>
					<dim>3</dim>
					<dim>3</dim>
				</port>
			</output>
		</layer>
		<layer id="268" name="self.RRDB_trunk.2.rdb1.conv3.weight" type="Convert" version="opset1">
			<data destination_type="f32" />
			<rt_info>
				<attribute name="decompression" version="0" />
			</rt_info>
			<input>
				<port id="0" precision="FP16">
					<dim>32</dim>
					<dim>128</dim>
					<dim>3</dim>
					<dim>3</dim>
				</port>
			</input>
			<output>
				<port id="1" precision="FP32">
					<dim>32</dim>
					<dim>128</dim>
					<dim>3</dim>
					<dim>3</dim>
				</port>
			</output>
		</layer>
		<layer id="269" name="__module.RRDB_trunk.2.rdb1.conv3/aten::_convolution/Convolution" type="Convolution" version="opset1">
			<data strides="1, 1" dilations="1, 1" pads_begin="1, 1" pads_end="1, 1" auto_pad="explicit" />
			<input>
				<port id="0" precision="FP32">
					<dim>-1</dim>
					<dim>128</dim>
					<dim>-1</dim>
					<dim>-1</dim>
				</port>
				<port id="1" precision="FP32">
					<dim>32</dim>
					<dim>128</dim>
					<dim>3</dim>
					<dim>3</dim>
				</port>
			</input>
			<output>
				<port id="2" precision="FP32">
					<dim>-1</dim>
					<dim>32</dim>
					<dim>-1</dim>
					<dim>-1</dim>
				</port>
			</output>
		</layer>
		<layer id="270" name="__module.RRDB_trunk.2.rdb1.conv3/aten::_convolution/Reshape_compressed" type="Const" version="opset1">
			<data element_type="f16" shape="1, 32, 1, 1" offset="3047298" size="64" />
			<output>
				<port id="0" precision="FP16">
					<dim>1</dim>
					<dim>32</dim>
					<dim>1</dim>
					<dim>1</dim>
				</port>
			</output>
		</layer>
		<layer id="271" name="__module.RRDB_trunk.2.rdb1.conv3/aten::_convolution/Reshape" type="Convert" version="opset1">
			<data destination_type="f32" />
			<rt_info>
				<attribute name="decompression" version="0" />
			</rt_info>
			<input>
				<port id="0" precision="FP16">
					<dim>1</dim>
					<dim>32</dim>
					<dim>1</dim>
					<dim>1</dim>
				</port>
			</input>
			<output>
				<port id="1" precision="FP32">
					<dim>1</dim>
					<dim>32</dim>
					<dim>1</dim>
					<dim>1</dim>
				</port>
			</output>
		</layer>
		<layer id="272" name="__module.RRDB_trunk.2.rdb1.conv3/aten::_convolution/Add" type="Add" version="opset1">
			<data auto_broadcast="numpy" />
			<input>
				<port id="0" precision="FP32">
					<dim>-1</dim>
					<dim>32</dim>
					<dim>-1</dim>
					<dim>-1</dim>
				</port>
				<port id="1" precision="FP32">
					<dim>1</dim>
					<dim>32</dim>
					<dim>1</dim>
					<dim>1</dim>
				</port>
			</input>
			<output>
				<port id="2" precision="FP32" names="447_1">
					<dim>-1</dim>
					<dim>32</dim>
					<dim>-1</dim>
					<dim>-1</dim>
				</port>
			</output>
		</layer>
		<layer id="273" name="__module.RRDB_trunk.2.rdb1.lrelu/aten::leaky_relu_/PRelu_2" type="PReLU" version="opset1">
			<input>
				<port id="0" precision="FP32">
					<dim>-1</dim>
					<dim>32</dim>
					<dim>-1</dim>
					<dim>-1</dim>
				</port>
				<port id="1" precision="FP32" />
			</input>
			<output>
				<port id="2" precision="FP32" names="447,input.119">
					<dim>-1</dim>
					<dim>32</dim>
					<dim>-1</dim>
					<dim>-1</dim>
				</port>
			</output>
		</layer>
		<layer id="274" name="__module.RRDB_trunk.2.rdb1/aten::cat/Concat_2" type="Concat" version="opset1">
			<data axis="1" />
			<input>
				<port id="0" precision="FP32">
					<dim>-1</dim>
					<dim>64</dim>
					<dim>-1</dim>
					<dim>-1</dim>
				</port>
				<port id="1" precision="FP32">
					<dim>-1</dim>
					<dim>32</dim>
					<dim>-1</dim>
					<dim>-1</dim>
				</port>
				<port id="2" precision="FP32">
					<dim>-1</dim>
					<dim>32</dim>
					<dim>-1</dim>
					<dim>-1</dim>
				</port>
				<port id="3" precision="FP32">
					<dim>-1</dim>
					<dim>32</dim>
					<dim>-1</dim>
					<dim>-1</dim>
				</port>
			</input>
			<output>
				<port id="4" precision="FP32" names="450,input.121">
					<dim>-1</dim>
					<dim>160</dim>
					<dim>-1</dim>
					<dim>-1</dim>
				</port>
			</output>
		</layer>
		<layer id="275" name="self.RRDB_trunk.2.rdb1.conv4.weight_compressed" type="Const" version="opset1">
			<data element_type="f16" shape="32, 160, 3, 3" offset="3047362" size="92160" />
			<output>
				<port id="0" precision="FP16" names="self.RRDB_trunk.2.rdb1.conv4.weight">
					<dim>32</dim>
					<dim>160</dim>
					<dim>3</dim>
					<dim>3</dim>
				</port>
			</output>
		</layer>
		<layer id="276" name="self.RRDB_trunk.2.rdb1.conv4.weight" type="Convert" version="opset1">
			<data destination_type="f32" />
			<rt_info>
				<attribute name="decompression" version="0" />
			</rt_info>
			<input>
				<port id="0" precision="FP16">
					<dim>32</dim>
					<dim>160</dim>
					<dim>3</dim>
					<dim>3</dim>
				</port>
			</input>
			<output>
				<port id="1" precision="FP32">
					<dim>32</dim>
					<dim>160</dim>
					<dim>3</dim>
					<dim>3</dim>
				</port>
			</output>
		</layer>
		<layer id="277" name="__module.RRDB_trunk.2.rdb1.conv4/aten::_convolution/Convolution" type="Convolution" version="opset1">
			<data strides="1, 1" dilations="1, 1" pads_begin="1, 1" pads_end="1, 1" auto_pad="explicit" />
			<input>
				<port id="0" precision="FP32">
					<dim>-1</dim>
					<dim>160</dim>
					<dim>-1</dim>
					<dim>-1</dim>
				</port>
				<port id="1" precision="FP32">
					<dim>32</dim>
					<dim>160</dim>
					<dim>3</dim>
					<dim>3</dim>
				</port>
			</input>
			<output>
				<port id="2" precision="FP32">
					<dim>-1</dim>
					<dim>32</dim>
					<dim>-1</dim>
					<dim>-1</dim>
				</port>
			</output>
		</layer>
		<layer id="278" name="__module.RRDB_trunk.2.rdb1.conv4/aten::_convolution/Reshape_compressed" type="Const" version="opset1">
			<data element_type="f16" shape="1, 32, 1, 1" offset="3139522" size="64" />
			<output>
				<port id="0" precision="FP16">
					<dim>1</dim>
					<dim>32</dim>
					<dim>1</dim>
					<dim>1</dim>
				</port>
			</output>
		</layer>
		<layer id="279" name="__module.RRDB_trunk.2.rdb1.conv4/aten::_convolution/Reshape" type="Convert" version="opset1">
			<data destination_type="f32" />
			<rt_info>
				<attribute name="decompression" version="0" />
			</rt_info>
			<input>
				<port id="0" precision="FP16">
					<dim>1</dim>
					<dim>32</dim>
					<dim>1</dim>
					<dim>1</dim>
				</port>
			</input>
			<output>
				<port id="1" precision="FP32">
					<dim>1</dim>
					<dim>32</dim>
					<dim>1</dim>
					<dim>1</dim>
				</port>
			</output>
		</layer>
		<layer id="280" name="__module.RRDB_trunk.2.rdb1.conv4/aten::_convolution/Add" type="Add" version="opset1">
			<data auto_broadcast="numpy" />
			<input>
				<port id="0" precision="FP32">
					<dim>-1</dim>
					<dim>32</dim>
					<dim>-1</dim>
					<dim>-1</dim>
				</port>
				<port id="1" precision="FP32">
					<dim>1</dim>
					<dim>32</dim>
					<dim>1</dim>
					<dim>1</dim>
				</port>
			</input>
			<output>
				<port id="2" precision="FP32" names="457_1">
					<dim>-1</dim>
					<dim>32</dim>
					<dim>-1</dim>
					<dim>-1</dim>
				</port>
			</output>
		</layer>
		<layer id="281" name="__module.RRDB_trunk.2.rdb1.lrelu/aten::leaky_relu_/PRelu_3" type="PReLU" version="opset1">
			<input>
				<port id="0" precision="FP32">
					<dim>-1</dim>
					<dim>32</dim>
					<dim>-1</dim>
					<dim>-1</dim>
				</port>
				<port id="1" precision="FP32" />
			</input>
			<output>
				<port id="2" precision="FP32" names="457,input.123">
					<dim>-1</dim>
					<dim>32</dim>
					<dim>-1</dim>
					<dim>-1</dim>
				</port>
			</output>
		</layer>
		<layer id="282" name="__module.RRDB_trunk.2.rdb1/aten::cat/Concat_3" type="Concat" version="opset1">
			<data axis="1" />
			<input>
				<port id="0" precision="FP32">
					<dim>-1</dim>
					<dim>64</dim>
					<dim>-1</dim>
					<dim>-1</dim>
				</port>
				<port id="1" precision="FP32">
					<dim>-1</dim>
					<dim>32</dim>
					<dim>-1</dim>
					<dim>-1</dim>
				</port>
				<port id="2" precision="FP32">
					<dim>-1</dim>
					<dim>32</dim>
					<dim>-1</dim>
					<dim>-1</dim>
				</port>
				<port id="3" precision="FP32">
					<dim>-1</dim>
					<dim>32</dim>
					<dim>-1</dim>
					<dim>-1</dim>
				</port>
				<port id="4" precision="FP32">
					<dim>-1</dim>
					<dim>32</dim>
					<dim>-1</dim>
					<dim>-1</dim>
				</port>
			</input>
			<output>
				<port id="5" precision="FP32" names="460,input.125">
					<dim>-1</dim>
					<dim>192</dim>
					<dim>-1</dim>
					<dim>-1</dim>
				</port>
			</output>
		</layer>
		<layer id="283" name="Multiply_34825_compressed" type="Const" version="opset1">
			<data element_type="f16" shape="64, 192, 3, 3" offset="3139586" size="221184" />
			<output>
				<port id="0" precision="FP16">
					<dim>64</dim>
					<dim>192</dim>
					<dim>3</dim>
					<dim>3</dim>
				</port>
			</output>
		</layer>
		<layer id="284" name="Multiply_34825" type="Convert" version="opset1">
			<data destination_type="f32" />
			<rt_info>
				<attribute name="decompression" version="0" />
			</rt_info>
			<input>
				<port id="0" precision="FP16">
					<dim>64</dim>
					<dim>192</dim>
					<dim>3</dim>
					<dim>3</dim>
				</port>
			</input>
			<output>
				<port id="1" precision="FP32">
					<dim>64</dim>
					<dim>192</dim>
					<dim>3</dim>
					<dim>3</dim>
				</port>
			</output>
		</layer>
		<layer id="285" name="Multiply_34561" type="Convolution" version="opset1">
			<data strides="1, 1" dilations="1, 1" pads_begin="1, 1" pads_end="1, 1" auto_pad="explicit" />
			<input>
				<port id="0" precision="FP32">
					<dim>-1</dim>
					<dim>192</dim>
					<dim>-1</dim>
					<dim>-1</dim>
				</port>
				<port id="1" precision="FP32">
					<dim>64</dim>
					<dim>192</dim>
					<dim>3</dim>
					<dim>3</dim>
				</port>
			</input>
			<output>
				<port id="2" precision="FP32">
					<dim>-1</dim>
					<dim>64</dim>
					<dim>-1</dim>
					<dim>-1</dim>
				</port>
			</output>
		</layer>
		<layer id="286" name="Constant_34563_compressed" type="Const" version="opset1">
			<data element_type="f16" shape="1, 64, 1, 1" offset="3360770" size="128" />
			<output>
				<port id="0" precision="FP16">
					<dim>1</dim>
					<dim>64</dim>
					<dim>1</dim>
					<dim>1</dim>
				</port>
			</output>
		</layer>
		<layer id="287" name="Constant_34563" type="Convert" version="opset1">
			<data destination_type="f32" />
			<rt_info>
				<attribute name="decompression" version="0" />
			</rt_info>
			<input>
				<port id="0" precision="FP16">
					<dim>1</dim>
					<dim>64</dim>
					<dim>1</dim>
					<dim>1</dim>
				</port>
			</input>
			<output>
				<port id="1" precision="FP32">
					<dim>1</dim>
					<dim>64</dim>
					<dim>1</dim>
					<dim>1</dim>
				</port>
			</output>
		</layer>
		<layer id="288" name="__module.RRDB_trunk.2.rdb1/aten::mul/Multiply" type="Add" version="opset1">
			<data auto_broadcast="numpy" />
			<input>
				<port id="0" precision="FP32">
					<dim>-1</dim>
					<dim>64</dim>
					<dim>-1</dim>
					<dim>-1</dim>
				</port>
				<port id="1" precision="FP32">
					<dim>1</dim>
					<dim>64</dim>
					<dim>1</dim>
					<dim>1</dim>
				</port>
			</input>
			<output>
				<port id="2" precision="FP32" names="468">
					<dim>-1</dim>
					<dim>64</dim>
					<dim>-1</dim>
					<dim>-1</dim>
				</port>
			</output>
		</layer>
		<layer id="289" name="__module.RRDB_trunk.2.rdb1/aten::add/Add" type="Add" version="opset1">
			<data auto_broadcast="numpy" />
			<input>
				<port id="0" precision="FP32">
					<dim>-1</dim>
					<dim>64</dim>
					<dim>-1</dim>
					<dim>-1</dim>
				</port>
…
		<edge from-layer="2276" from-port="0" to-layer="2277" to-port="0" />
		<edge from-layer="2277" from-port="1" to-layer="2278" to-port="1" />
		<edge from-layer="2278" from-port="2" to-layer="2279" to-port="0" />
		<edge from-layer="2279" from-port="2" to-layer="2288" to-port="2" />
		<edge from-layer="2279" from-port="2" to-layer="2296" to-port="2" />
		<edge from-layer="2279" from-port="2" to-layer="2280" to-port="2" />
		<edge from-layer="2280" from-port="3" to-layer="2283" to-port="0" />
		<edge from-layer="2281" from-port="0" to-layer="2282" to-port="0" />
		<edge from-layer="2282" from-port="1" to-layer="2283" to-port="1" />
		<edge from-layer="2283" from-port="2" to-layer="2286" to-port="0" />
		<edge from-layer="2284" from-port="0" to-layer="2285" to-port="0" />
		<edge from-layer="2285" from-port="1" to-layer="2286" to-port="1" />
		<edge from-layer="2286" from-port="2" to-layer="2287" to-port="0" />
		<edge from-layer="2287" from-port="2" to-layer="2288" to-port="3" />
		<edge from-layer="2287" from-port="2" to-layer="2296" to-port="3" />
		<edge from-layer="2288" from-port="4" to-layer="2291" to-port="0" />
		<edge from-layer="2289" from-port="0" to-layer="2290" to-port="0" />
		<edge from-layer="2290" from-port="1" to-layer="2291" to-port="1" />
		<edge from-layer="2291" from-port="2" to-layer="2294" to-port="0" />
		<edge from-layer="2292" from-port="0" to-layer="2293" to-port="0" />
		<edge from-layer="2293" from-port="1" to-layer="2294" to-port="1" />
		<edge from-layer="2294" from-port="2" to-layer="2295" to-port="0" />
		<edge from-layer="2295" from-port="2" to-layer="2296" to-port="4" />
		<edge from-layer="2296" from-port="5" to-layer="2299" to-port="0" />
		<edge from-layer="2297" from-port="0" to-layer="2298" to-port="0" />
		<edge from-layer="2298" from-port="1" to-layer="2299" to-port="1" />
		<edge from-layer="2299" from-port="2" to-layer="2302" to-port="0" />
		<edge from-layer="2300" from-port="0" to-layer="2301" to-port="0" />
		<edge from-layer="2301" from-port="1" to-layer="2302" to-port="1" />
		<edge from-layer="2302" from-port="2" to-layer="2303" to-port="0" />
		<edge from-layer="2303" from-port="2" to-layer="2306" to-port="0" />
		<edge from-layer="2304" from-port="0" to-layer="2305" to-port="0" />
		<edge from-layer="2305" from-port="1" to-layer="2306" to-port="1" />
		<edge from-layer="2306" from-port="2" to-layer="2307" to-port="0" />
		<edge from-layer="2307" from-port="2" to-layer="2339" to-port="0" />
		<edge from-layer="2307" from-port="2" to-layer="2315" to-port="0" />
		<edge from-layer="2307" from-port="2" to-layer="2428" to-port="1" />
		<edge from-layer="2307" from-port="2" to-layer="2310" to-port="0" />
		<edge from-layer="2307" from-port="2" to-layer="2323" to-port="0" />
		<edge from-layer="2307" from-port="2" to-layer="2346" to-port="1" />
		<edge from-layer="2307" from-port="2" to-layer="2331" to-port="0" />
		<edge from-layer="2308" from-port="0" to-layer="2309" to-port="0" />
		<edge from-layer="2309" from-port="1" to-layer="2310" to-port="1" />
		<edge from-layer="2310" from-port="2" to-layer="2313" to-port="0" />
		<edge from-layer="2311" from-port="0" to-layer="2312" to-port="0" />
		<edge from-layer="2312" from-port="1" to-layer="2313" to-port="1" />
		<edge from-layer="2313" from-port="2" to-layer="2314" to-port="0" />
		<edge from-layer="2314" from-port="2" to-layer="2323" to-port="1" />
		<edge from-layer="2314" from-port="2" to-layer="2331" to-port="1" />
		<edge from-layer="2314" from-port="2" to-layer="2339" to-port="1" />
		<edge from-layer="2314" from-port="2" to-layer="2315" to-port="1" />
		<edge from-layer="2315" from-port="2" to-layer="2318" to-port="0" />
		<edge from-layer="2316" from-port="0" to-layer="2317" to-port="0" />
		<edge from-layer="2317" from-port="1" to-layer="2318" to-port="1" />
		<edge from-layer="2318" from-port="2" to-layer="2321" to-port="0" />
		<edge from-layer="2319" from-port="0" to-layer="2320" to-port="0" />
		<edge from-layer="2320" from-port="1" to-layer="2321" to-port="1" />
		<edge from-layer="2321" from-port="2" to-layer="2322" to-port="0" />
		<edge from-layer="2322" from-port="2" to-layer="2323" to-port="2" />
		<edge from-layer="2322" from-port="2" to-layer="2331" to-port="2" />
		<edge from-layer="2322" from-port="2" to-layer="2339" to-port="2" />
		<edge from-layer="2323" from-port="3" to-layer="2326" to-port="0" />
		<edge from-layer="2324" from-port="0" to-layer="2325" to-port="0" />
		<edge from-layer="2325" from-port="1" to-layer="2326" to-port="1" />
		<edge from-layer="2326" from-port="2" to-layer="2329" to-port="0" />
		<edge from-layer="2327" from-port="0" to-layer="2328" to-port="0" />
		<edge from-layer="2328" from-port="1" to-layer="2329" to-port="1" />
		<edge from-layer="2329" from-port="2" to-layer="2330" to-port="0" />
		<edge from-layer="2330" from-port="2" to-layer="2339" to-port="3" />
		<edge from-layer="2330" from-port="2" to-layer="2331" to-port="3" />
		<edge from-layer="2331" from-port="4" to-layer="2334" to-port="0" />
		<edge from-layer="2332" from-port="0" to-layer="2333" to-port="0" />
		<edge from-layer="2333" from-port="1" to-layer="2334" to-port="1" />
		<edge from-layer="2334" from-port="2" to-layer="2337" to-port="0" />
		<edge from-layer="2335" from-port="0" to-layer="2336" to-port="0" />
		<edge from-layer="2336" from-port="1" to-layer="2337" to-port="1" />
		<edge from-layer="2337" from-port="2" to-layer="2338" to-port="0" />
		<edge from-layer="2338" from-port="2" to-layer="2339" to-port="4" />
		<edge from-layer="2339" from-port="5" to-layer="2342" to-port="0" />
		<edge from-layer="2340" from-port="0" to-layer="2341" to-port="0" />
		<edge from-layer="2341" from-port="1" to-layer="2342" to-port="1" />
		<edge from-layer="2342" from-port="2" to-layer="2345" to-port="0" />
		<edge from-layer="2343" from-port="0" to-layer="2344" to-port="0" />
		<edge from-layer="2344" from-port="1" to-layer="2345" to-port="1" />
		<edge from-layer="2345" from-port="2" to-layer="2346" to-port="0" />
		<edge from-layer="2346" from-port="2" to-layer="2349" to-port="0" />
		<edge from-layer="2346" from-port="2" to-layer="2385" to-port="1" />
		<edge from-layer="2346" from-port="2" to-layer="2354" to-port="0" />
		<edge from-layer="2346" from-port="2" to-layer="2378" to-port="0" />
		<edge from-layer="2346" from-port="2" to-layer="2370" to-port="0" />
		<edge from-layer="2346" from-port="2" to-layer="2362" to-port="0" />
		<edge from-layer="2347" from-port="0" to-layer="2348" to-port="0" />
		<edge from-layer="2348" from-port="1" to-layer="2349" to-port="1" />
		<edge from-layer="2349" from-port="2" to-layer="2352" to-port="0" />
		<edge from-layer="2350" from-port="0" to-layer="2351" to-port="0" />
		<edge from-layer="2351" from-port="1" to-layer="2352" to-port="1" />
		<edge from-layer="2352" from-port="2" to-layer="2353" to-port="0" />
		<edge from-layer="2353" from-port="2" to-layer="2362" to-port="1" />
		<edge from-layer="2353" from-port="2" to-layer="2354" to-port="1" />
		<edge from-layer="2353" from-port="2" to-layer="2378" to-port="1" />
		<edge from-layer="2353" from-port="2" to-layer="2370" to-port="1" />
		<edge from-layer="2354" from-port="2" to-layer="2357" to-port="0" />
		<edge from-layer="2355" from-port="0" to-layer="2356" to-port="0" />
		<edge from-layer="2356" from-port="1" to-layer="2357" to-port="1" />
		<edge from-layer="2357" from-port="2" to-layer="2360" to-port="0" />
		<edge from-layer="2358" from-port="0" to-layer="2359" to-port="0" />
		<edge from-layer="2359" from-port="1" to-layer="2360" to-port="1" />
		<edge from-layer="2360" from-port="2" to-layer="2361" to-port="0" />
		<edge from-layer="2361" from-port="2" to-layer="2370" to-port="2" />
		<edge from-layer="2361" from-port="2" to-layer="2378" to-port="2" />
		<edge from-layer="2361" from-port="2" to-layer="2362" to-port="2" />
		<edge from-layer="2362" from-port="3" to-layer="2365" to-port="0" />
		<edge from-layer="2363" from-port="0" to-layer="2364" to-port="0" />
		<edge from-layer="2364" from-port="1" to-layer="2365" to-port="1" />
		<edge from-layer="2365" from-port="2" to-layer="2368" to-port="0" />
		<edge from-layer="2366" from-port="0" to-layer="2367" to-port="0" />
		<edge from-layer="2367" from-port="1" to-layer="2368" to-port="1" />
		<edge from-layer="2368" from-port="2" to-layer="2369" to-port="0" />
		<edge from-layer="2369" from-port="2" to-layer="2370" to-port="3" />
		<edge from-layer="2369" from-port="2" to-layer="2378" to-port="3" />
		<edge from-layer="2370" from-port="4" to-layer="2373" to-port="0" />
		<edge from-layer="2371" from-port="0" to-layer="2372" to-port="0" />
		<edge from-layer="2372" from-port="1" to-layer="2373" to-port="1" />
		<edge from-layer="2373" from-port="2" to-layer="2376" to-port="0" />
		<edge from-layer="2374" from-port="0" to-layer="2375" to-port="0" />
		<edge from-layer="2375" from-port="1" to-layer="2376" to-port="1" />
		<edge from-layer="2376" from-port="2" to-layer="2377" to-port="0" />
		<edge from-layer="2377" from-port="2" to-layer="2378" to-port="4" />
		<edge from-layer="2378" from-port="5" to-layer="2381" to-port="0" />
		<edge from-layer="2379" from-port="0" to-layer="2380" to-port="0" />
		<edge from-layer="2380" from-port="1" to-layer="2381" to-port="1" />
		<edge from-layer="2381" from-port="2" to-layer="2384" to-port="0" />
		<edge from-layer="2382" from-port="0" to-layer="2383" to-port="0" />
		<edge from-layer="2383" from-port="1" to-layer="2384" to-port="1" />
		<edge from-layer="2384" from-port="2" to-layer="2385" to-port="0" />
		<edge from-layer="2385" from-port="2" to-layer="2417" to-port="0" />
		<edge from-layer="2385" from-port="2" to-layer="2409" to-port="0" />
		<edge from-layer="2385" from-port="2" to-layer="2401" to-port="0" />
		<edge from-layer="2385" from-port="2" to-layer="2393" to-port="0" />
		<edge from-layer="2385" from-port="2" to-layer="2388" to-port="0" />
		<edge from-layer="2385" from-port="2" to-layer="2424" to-port="1" />
		<edge from-layer="2386" from-port="0" to-layer="2387" to-port="0" />
		<edge from-layer="2387" from-port="1" to-layer="2388" to-port="1" />
		<edge from-layer="2388" from-port="2" to-layer="2391" to-port="0" />
		<edge from-layer="2389" from-port="0" to-layer="2390" to-port="0" />
		<edge from-layer="2390" from-port="1" to-layer="2391" to-port="1" />
		<edge from-layer="2391" from-port="2" to-layer="2392" to-port="0" />
		<edge from-layer="2392" from-port="2" to-layer="2417" to-port="1" />
		<edge from-layer="2392" from-port="2" to-layer="2393" to-port="1" />
		<edge from-layer="2392" from-port="2" to-layer="2401" to-port="1" />
		<edge from-layer="2392" from-port="2" to-layer="2409" to-port="1" />
		<edge from-layer="2393" from-port="2" to-layer="2396" to-port="0" />
		<edge from-layer="2394" from-port="0" to-layer="2395" to-port="0" />
		<edge from-layer="2395" from-port="1" to-layer="2396" to-port="1" />
		<edge from-layer="2396" from-port="2" to-layer="2399" to-port="0" />
		<edge from-layer="2397" from-port="0" to-layer="2398" to-port="0" />
		<edge from-layer="2398" from-port="1" to-layer="2399" to-port="1" />
		<edge from-layer="2399" from-port="2" to-layer="2400" to-port="0" />
		<edge from-layer="2400" from-port="2" to-layer="2417" to-port="2" />
		<edge from-layer="2400" from-port="2" to-layer="2409" to-port="2" />
		<edge from-layer="2400" from-port="2" to-layer="2401" to-port="2" />
		<edge from-layer="2401" from-port="3" to-layer="2404" to-port="0" />
		<edge from-layer="2402" from-port="0" to-layer="2403" to-port="0" />
		<edge from-layer="2403" from-port="1" to-layer="2404" to-port="1" />
		<edge from-layer="2404" from-port="2" to-layer="2407" to-port="0" />
		<edge from-layer="2405" from-port="0" to-layer="2406" to-port="0" />
		<edge from-layer="2406" from-port="1" to-layer="2407" to-port="1" />
		<edge from-layer="2407" from-port="2" to-layer="2408" to-port="0" />
		<edge from-layer="2408" from-port="2" to-layer="2417" to-port="3" />
		<edge from-layer="2408" from-port="2" to-layer="2409" to-port="3" />
		<edge from-layer="2409" from-port="4" to-layer="2412" to-port="0" />
		<edge from-layer="2410" from-port="0" to-layer="2411" to-port="0" />
		<edge from-layer="2411" from-port="1" to-layer="2412" to-port="1" />
		<edge from-layer="2412" from-port="2" to-layer="2415" to-port="0" />
		<edge from-layer="2413" from-port="0" to-layer="2414" to-port="0" />
		<edge from-layer="2414" from-port="1" to-layer="2415" to-port="1" />
		<edge from-layer="2415" from-port="2" to-layer="2416" to-port="0" />
		<edge from-layer="2416" from-port="2" to-layer="2417" to-port="4" />
		<edge from-layer="2417" from-port="5" to-layer="2420" to-port="0" />
		<edge from-layer="2418" from-port="0" to-layer="2419" to-port="0" />
		<edge from-layer="2419" from-port="1" to-layer="2420" to-port="1" />
		<edge from-layer="2420" from-port="2" to-layer="2423" to-port="0" />
		<edge from-layer="2421" from-port="0" to-layer="2422" to-port="0" />
		<edge from-layer="2422" from-port="1" to-layer="2423" to-port="1" />
		<edge from-layer="2423" from-port="2" to-layer="2424" to-port="0" />
		<edge from-layer="2424" from-port="2" to-layer="2427" to-port="0" />
		<edge from-layer="2425" from-port="0" to-layer="2426" to-port="0" />
		<edge from-layer="2426" from-port="1" to-layer="2427" to-port="1" />
		<edge from-layer="2427" from-port="2" to-layer="2428" to-port="0" />
		<edge from-layer="2428" from-port="2" to-layer="2549" to-port="1" />
		<edge from-layer="2428" from-port="2" to-layer="2467" to-port="1" />
		<edge from-layer="2428" from-port="2" to-layer="2460" to-port="0" />
		<edge from-layer="2428" from-port="2" to-layer="2444" to-port="0" />
		<edge from-layer="2428" from-port="2" to-layer="2436" to-port="0" />
		<edge from-layer="2428" from-port="2" to-layer="2431" to-port="0" />
		<edge from-layer="2428" from-port="2" to-layer="2452" to-port="0" />
		<edge from-layer="2429" from-port="0" to-layer="2430" to-port="0" />
		<edge from-layer="2430" from-port="1" to-layer="2431" to-port="1" />
		<edge from-layer="2431" from-port="2" to-layer="2434" to-port="0" />
		<edge from-layer="2432" from-port="0" to-layer="2433" to-port="0" />
		<edge from-layer="2433" from-port="1" to-layer="2434" to-port="1" />
		<edge from-layer="2434" from-port="2" to-layer="2435" to-port="0" />
		<edge from-layer="2435" from-port="2" to-layer="2452" to-port="1" />
		<edge from-layer="2435" from-port="2" to-layer="2460" to-port="1" />
		<edge from-layer="2435" from-port="2" to-layer="2436" to-port="1" />
		<edge from-layer="2435" from-port="2" to-layer="2444" to-port="1" />
		<edge from-layer="2436" from-port="2" to-layer="2439" to-port="0" />
		<edge from-layer="2437" from-port="0" to-layer="2438" to-port="0" />
		<edge from-layer="2438" from-port="1" to-layer="2439" to-port="1" />
		<edge from-layer="2439" from-port="2" to-layer="2442" to-port="0" />
		<edge from-layer="2440" from-port="0" to-layer="2441" to-port="0" />
		<edge from-layer="2441" from-port="1" to-layer="2442" to-port="1" />
		<edge from-layer="2442" from-port="2" to-layer="2443" to-port="0" />
		<edge from-layer="2443" from-port="2" to-layer="2452" to-port="2" />
		<edge from-layer="2443" from-port="2" to-layer="2444" to-port="2" />
		<edge from-layer="2443" from-port="2" to-layer="2460" to-port="2" />
		<edge from-layer="2444" from-port="3" to-layer="2447" to-port="0" />
		<edge from-layer="2445" from-port="0" to-layer="2446" to-port="0" />
		<edge from-layer="2446" from-port="1" to-layer="2447" to-port="1" />
		<edge from-layer="2447" from-port="2" to-layer="2450" to-port="0" />
		<edge from-layer="2448" from-port="0" to-layer="2449" to-port="0" />
		<edge from-layer="2449" from-port="1" to-layer="2450" to-port="1" />
		<edge from-layer="2450" from-port="2" to-layer="2451" to-port="0" />
		<edge from-layer="2451" from-port="2" to-layer="2452" to-port="3" />
		<edge from-layer="2451" from-port="2" to-layer="2460" to-port="3" />
		<edge from-layer="2452" from-port="4" to-layer="2455" to-port="0" />
		<edge from-layer="2453" from-port="0" to-layer="2454" to-port="0" />
		<edge from-layer="2454" from-port="1" to-layer="2455" to-port="1" />
		<edge from-layer="2455" from-port="2" to-layer="2458" to-port="0" />
		<edge from-layer="2456" from-port="0" to-layer="2457" to-port="0" />
		<edge from-layer="2457" from-port="1" to-layer="2458" to-port="1" />
		<edge from-layer="2458" from-port="2" to-layer="2459" to-port="0" />
		<edge from-layer="2459" from-port="2" to-layer="2460" to-port="4" />
		<edge from-layer="2460" from-port="5" to-layer="2463" to-port="0" />
		<edge from-layer="2461" from-port="0" to-layer="2462" to-port="0" />
		<edge from-layer="2462" from-port="1" to-layer="2463" to-port="1" />
		<edge from-layer="2463" from-port="2" to-layer="2466" to-port="0" />
		<edge from-layer="2464" from-port="0" to-layer="2465" to-port="0" />
		<edge from-layer="2465" from-port="1" to-layer="2466" to-port="1" />
		<edge from-layer="2466" from-port="2" to-layer="2467" to-port="0" />
		<edge from-layer="2467" from-port="2" to-layer="2475" to-port="0" />
		<edge from-layer="2467" from-port="2" to-layer="2470" to-port="0" />
		<edge from-layer="2467" from-port="2" to-layer="2499" to-port="0" />
		<edge from-layer="2467" from-port="2" to-layer="2483" to-port="0" />
		<edge from-layer="2467" from-port="2" to-layer="2491" to-port="0" />
		<edge from-layer="2467" from-port="2" to-layer="2506" to-port="1" />
		<edge from-layer="2468" from-port="0" to-layer="2469" to-port="0" />
		<edge from-layer="2469" from-port="1" to-layer="2470" to-port="1" />
		<edge from-layer="2470" from-port="2" to-layer="2473" to-port="0" />
		<edge from-layer="2471" from-port="0" to-layer="2472" to-port="0" />
		<edge from-layer="2472" from-port="1" to-layer="2473" to-port="1" />
		<edge from-layer="2473" from-port="2" to-layer="2474" to-port="0" />
		<edge from-layer="2474" from-port="2" to-layer="2491" to-port="1" />
		<edge from-layer="2474" from-port="2" to-layer="2483" to-port="1" />
		<edge from-layer="2474" from-port="2" to-layer="2499" to-port="1" />
		<edge from-layer="2474" from-port="2" to-layer="2475" to-port="1" />
		<edge from-layer="2475" from-port="2" to-layer="2478" to-port="0" />
		<edge from-layer="2476" from-port="0" to-layer="2477" to-port="0" />
		<edge from-layer="2477" from-port="1" to-layer="2478" to-port="1" />
		<edge from-layer="2478" from-port="2" to-layer="2481" to-port="0" />
		<edge from-layer="2479" from-port="0" to-layer="2480" to-port="0" />
		<edge from-layer="2480" from-port="1" to-layer="2481" to-port="1" />
		<edge from-layer="2481" from-port="2" to-layer="2482" to-port="0" />
		<edge from-layer="2482" from-port="2" to-layer="2483" to-port="2" />
		<edge from-layer="2482" from-port="2" to-layer="2499" to-port="2" />
		<edge from-layer="2482" from-port="2" to-layer="2491" to-port="2" />
		<edge from-layer="2483" from-port="3" to-layer="2486" to-port="0" />
		<edge from-layer="2484" from-port="0" to-layer="2485" to-port="0" />
		<edge from-layer="2485" from-port="1" to-layer="2486" to-port="1" />
		<edge from-layer="2486" from-port="2" to-layer="2489" to-port="0" />
		<edge from-layer="2487" from-port="0" to-layer="2488" to-port="0" />
		<edge from-layer="2488" from-port="1" to-layer="2489" to-port="1" />
		<edge from-layer="2489" from-port="2" to-layer="2490" to-port="0" />
		<edge from-layer="2490" from-port="2" to-layer="2491" to-port="3" />
		<edge from-layer="2490" from-port="2" to-layer="2499" to-port="3" />
		<edge from-layer="2491" from-port="4" to-layer="2494" to-port="0" />
		<edge from-layer="2492" from-port="0" to-layer="2493" to-port="0" />
		<edge from-layer="2493" from-port="1" to-layer="2494" to-port="1" />
		<edge from-layer="2494" from-port="2" to-layer="2497" to-port="0" />
		<edge from-layer="2495" from-port="0" to-layer="2496" to-port="0" />
		<edge from-layer="2496" from-port="1" to-layer="2497" to-port="1" />
		<edge from-layer="2497" from-port="2" to-layer="2498" to-port="0" />
		<edge from-layer="2498" from-port="2" to-layer="2499" to-port="4" />
		<edge from-layer="2499" from-port="5" to-layer="2502" to-port="0" />
		<edge from-layer="2500" from-port="0" to-layer="2501" to-port="0" />
		<edge from-layer="2501" from-port="1" to-layer="2502" to-port="1" />
		<edge from-layer="2502" from-port="2" to-layer="2505" to-port="0" />
		<edge from-layer="2503" from-port="0" to-layer="2504" to-port="0" />
		<edge from-layer="2504" from-port="1" to-layer="2505" to-port="1" />
		<edge from-layer="2505" from-port="2" to-layer="2506" to-port="0" />
		<edge from-layer="2506" from-port="2" to-layer="2545" to-port="1" />
		<edge from-layer="2506" from-port="2" to-layer="2509" to-port="0" />
		<edge from-layer="2506" from-port="2" to-layer="2522" to-port="0" />
		<edge from-layer="2506" from-port="2" to-layer="2530" to-port="0" />
		<edge from-layer="2506" from-port="2" to-layer="2538" to-port="0" />
		<edge from-layer="2506" from-port="2" to-layer="2514" to-port="0" />
		<edge from-layer="2507" from-port="0" to-layer="2508" to-port="0" />
		<edge from-layer="2508" from-port="1" to-layer="2509" to-port="1" />
		<edge from-layer="2509" from-port="2" to-layer="2512" to-port="0" />
		<edge from-layer="2510" from-port="0" to-layer="2511" to-port="0" />
		<edge from-layer="2511" from-port="1" to-layer="2512" to-port="1" />
		<edge from-layer="2512" from-port="2" to-layer="2513" to-port="0" />
		<edge from-layer="2513" from-port="2" to-layer="2538" to-port="1" />
		<edge from-layer="2513" from-port="2" to-layer="2522" to-port="1" />
		<edge from-layer="2513" from-port="2" to-layer="2514" to-port="1" />
		<edge from-layer="2513" from-port="2" to-layer="2530" to-port="1" />
		<edge from-layer="2514" from-port="2" to-layer="2517" to-port="0" />
		<edge from-layer="2515" from-port="0" to-layer="2516" to-port="0" />
		<edge from-layer="2516" from-port="1" to-layer="2517" to-port="1" />
		<edge from-layer="2517" from-port="2" to-layer="2520" to-port="0" />
		<edge from-layer="2518" from-port="0" to-layer="2519" to-port="0" />
		<edge from-layer="2519" from-port="1" to-layer="2520" to-port="1" />
		<edge from-layer="2520" from-port="2" to-layer="2521" to-port="0" />
		<edge from-layer="2521" from-port="2" to-layer="2538" to-port="2" />
		<edge from-layer="2521" from-port="2" to-layer="2522" to-port="2" />
		<edge from-layer="2521" from-port="2" to-layer="2530" to-port="2" />
		<edge from-layer="2522" from-port="3" to-layer="2525" to-port="0" />
		<edge from-layer="2523" from-port="0" to-layer="2524" to-port="0" />
		<edge from-layer="2524" from-port="1" to-layer="2525" to-port="1" />
		<edge from-layer="2525" from-port="2" to-layer="2528" to-port="0" />
		<edge from-layer="2526" from-port="0" to-layer="2527" to-port="0" />
		<edge from-layer="2527" from-port="1" to-layer="2528" to-port="1" />
		<edge from-layer="2528" from-port="2" to-layer="2529" to-port="0" />
		<edge from-layer="2529" from-port="2" to-layer="2538" to-port="3" />
		<edge from-layer="2529" from-port="2" to-layer="2530" to-port="3" />
		<edge from-layer="2530" from-port="4" to-layer="2533" to-port="0" />
		<edge from-layer="2531" from-port="0" to-layer="2532" to-port="0" />
		<edge from-layer="2532" from-port="1" to-layer="2533" to-port="1" />
		<edge from-layer="2533" from-port="2" to-layer="2536" to-port="0" />
		<edge from-layer="2534" from-port="0" to-layer="2535" to-port="0" />
		<edge from-layer="2535" from-port="1" to-layer="2536" to-port="1" />
		<edge from-layer="2536" from-port="2" to-layer="2537" to-port="0" />
		<edge from-layer="2537" from-port="2" to-layer="2538" to-port="4" />
		<edge from-layer="2538" from-port="5" to-layer="2541" to-port="0" />
		<edge from-layer="2539" from-port="0" to-layer="2540" to-port="0" />
		<edge from-layer="2540" from-port="1" to-layer="2541" to-port="1" />
		<edge from-layer="2541" from-port="2" to-layer="2544" to-port="0" />
		<edge from-layer="2542" from-port="0" to-layer="2543" to-port="0" />
		<edge from-layer="2543" from-port="1" to-layer="2544" to-port="1" />
		<edge from-layer="2544" from-port="2" to-layer="2545" to-port="0" />
		<edge from-layer="2545" from-port="2" to-layer="2548" to-port="0" />
		<edge from-layer="2546" from-port="0" to-layer="2547" to-port="0" />
		<edge from-layer="2547" from-port="1" to-layer="2548" to-port="1" />
		<edge from-layer="2548" from-port="2" to-layer="2549" to-port="0" />
		<edge from-layer="2549" from-port="2" to-layer="2565" to-port="0" />
		<edge from-layer="2549" from-port="2" to-layer="2552" to-port="0" />
		<edge from-layer="2549" from-port="2" to-layer="2670" to-port="1" />
		<edge from-layer="2549" from-port="2" to-layer="2581" to-port="0" />
		<edge from-layer="2549" from-port="2" to-layer="2588" to-port="1" />
		<edge from-layer="2549" from-port="2" to-layer="2557" to-port="0" />
		<edge from-layer="2549" from-port="2" to-layer="2573" to-port="0" />
		<edge from-layer="2550" from-port="0" to-layer="2551" to-port="0" />
		<edge from-layer="2551" from-port="1" to-layer="2552" to-port="1" />
		<edge from-layer="2552" from-port="2" to-layer="2555" to-port="0" />
		<edge from-layer="2553" from-port="0" to-layer="2554" to-port="0" />
		<edge from-layer="2554" from-port="1" to-layer="2555" to-port="1" />
		<edge from-layer="2555" from-port="2" to-layer="2556" to-port="0" />
		<edge from-layer="2556" from-port="2" to-layer="2565" to-port="1" />
		<edge from-layer="2556" from-port="2" to-layer="2557" to-port="1" />
		<edge from-layer="2556" from-port="2" to-layer="2573" to-port="1" />
		<edge from-layer="2556" from-port="2" to-layer="2581" to-port="1" />
		<edge from-layer="2557" from-port="2" to-layer="2560" to-port="0" />
		<edge from-layer="2558" from-port="0" to-layer="2559" to-port="0" />
		<edge from-layer="2559" from-port="1" to-layer="2560" to-port="1" />
		<edge from-layer="2560" from-port="2" to-layer="2563" to-port="0" />
		<edge from-layer="2561" from-port="0" to-layer="2562" to-port="0" />
		<edge from-layer="2562" from-port="1" to-layer="2563" to-port="1" />
		<edge from-layer="2563" from-port="2" to-layer="2564" to-port="0" />
		<edge from-layer="2564" from-port="2" to-layer="2565" to-port="2" />
		<edge from-layer="2564" from-port="2" to-layer="2581" to-port="2" />
		<edge from-layer="2564" from-port="2" to-layer="2573" to-port="2" />
		<edge from-layer="2565" from-port="3" to-layer="2568" to-port="0" />
		<edge from-layer="2566" from-port="0" to-layer="2567" to-port="0" />
		<edge from-layer="2567" from-port="1" to-layer="2568" to-port="1" />
		<edge from-layer="2568" from-port="2" to-layer="2571" to-port="0" />
		<edge from-layer="2569" from-port="0" to-layer="2570" to-port="0" />
		<edge from-layer="2570" from-port="1" to-layer="2571" to-port="1" />
		<edge from-layer="2571" from-port="2" to-layer="2572" to-port="0" />
		<edge from-layer="2572" from-port="2" to-layer="2573" to-port="3" />
		<edge from-layer="2572" from-port="2" to-layer="2581" to-port="3" />
		<edge from-layer="2573" from-port="4" to-layer="2576" to-port="0" />
		<edge from-layer="2574" from-port="0" to-layer="2575" to-port="0" />
		<edge from-layer="2575" from-port="1" to-layer="2576" to-port="1" />
		<edge from-layer="2576" from-port="2" to-layer="2579" to-port="0" />
		<edge from-layer="2577" from-port="0" to-layer="2578" to-port="0" />
		<edge from-layer="2578" from-port="1" to-layer="2579" to-port="1" />
		<edge from-layer="2579" from-port="2" to-layer="2580" to-port="0" />
		<edge from-layer="2580" from-port="2" to-layer="2581" to-port="4" />
		<edge from-layer="2581" from-port="5" to-layer="2584" to-port="0" />
		<edge from-layer="2582" from-port="0" to-layer="2583" to-port="0" />
		<edge from-layer="2583" from-port="1" to-layer="2584" to-port="1" />
		<edge from-layer="2584" from-port="2" to-layer="2587" to-port="0" />
		<edge from-layer="2585" from-port="0" to-layer="2586" to-port="0" />
		<edge from-layer="2586" from-port="1" to-layer="2587" to-port="1" />
		<edge from-layer="2587" from-port="2" to-layer="2588" to-port="0" />
		<edge from-layer="2588" from-port="2" to-layer="2604" to-port="0" />
		<edge from-layer="2588" from-port="2" to-layer="2596" to-port="0" />
		<edge from-layer="2588" from-port="2" to-layer="2627" to-port="1" />
		<edge from-layer="2588" from-port="2" to-layer="2591" to-port="0" />
		<edge from-layer="2588" from-port="2" to-layer="2620" to-port="0" />
		<edge from-layer="2588" from-port="2" to-layer="2612" to-port="0" />
		<edge from-layer="2589" from-port="0" to-layer="2590" to-port="0" />
		<edge from-layer="2590" from-port="1" to-layer="2591" to-port="1" />
		<edge from-layer="2591" from-port="2" to-layer="2594" to-port="0" />
		<edge from-layer="2592" from-port="0" to-layer="2593" to-port="0" />
		<edge from-layer="2593" from-port="1" to-layer="2594" to-port="1" />
		<edge from-layer="2594" from-port="2" to-layer="2595" to-port="0" />
		<edge from-layer="2595" from-port="2" to-layer="2620" to-port="1" />
		<edge from-layer="2595" from-port="2" to-layer="2604" to-port="1" />
		<edge from-layer="2595" from-port="2" to-layer="2596" to-port="1" />
		<edge from-layer="2595" from-port="2" to-layer="2612" to-port="1" />
		<edge from-layer="2596" from-port="2" to-layer="2599" to-port="0" />
		<edge from-layer="2597" from-port="0" to-layer="2598" to-port="0" />
		<edge from-layer="2598" from-port="1" to-layer="2599" to-port="1" />
		<edge from-layer="2599" from-port="2" to-layer="2602" to-port="0" />
		<edge from-layer="2600" from-port="0" to-layer="2601" to-port="0" />
		<edge from-layer="2601" from-port="1" to-layer="2602" to-port="1" />
		<edge from-layer="2602" from-port="2" to-layer="2603" to-port="0" />
		<edge from-layer="2603" from-port="2" to-layer="2620" to-port="2" />
		<edge from-layer="2603" from-port="2" to-layer="2604" to-port="2" />
		<edge from-layer="2603" from-port="2" to-layer="2612" to-port="2" />
		<edge from-layer="2604" from-port="3" to-layer="2607" to-port="0" />
		<edge from-layer="2605" from-port="0" to-layer="2606" to-port="0" />
		<edge from-layer="2606" from-port="1" to-layer="2607" to-port="1" />
		<edge from-layer="2607" from-port="2" to-layer="2610" to-port="0" />
		<edge from-layer="2608" from-port="0" to-layer="2609" to-port="0" />
		<edge from-layer="2609" from-port="1" to-layer="2610" to-port="1" />
		<edge from-layer="2610" from-port="2" to-layer="2611" to-port="0" />
		<edge from-layer="2611" from-port="2" to-layer="2612" to-port="3" />
		<edge from-layer="2611" from-port="2" to-layer="2620" to-port="3" />
		<edge from-layer="2612" from-port="4" to-layer="2615" to-port="0" />
		<edge from-layer="2613" from-port="0" to-layer="2614" to-port="0" />
		<edge from-layer="2614" from-port="1" to-layer="2615" to-port="1" />
		<edge from-layer="2615" from-port="2" to-layer="2618" to-port="0" />
		<edge from-layer="2616" from-port="0" to-layer="2617" to-port="0" />
		<edge from-layer="2617" from-port="1" to-layer="2618" to-port="1" />
		<edge from-layer="2618" from-port="2" to-layer="2619" to-port="0" />
		<edge from-layer="2619" from-port="2" to-layer="2620" to-port="4" />
		<edge from-layer="2620" from-port="5" to-layer="2623" to-port="0" />
		<edge from-layer="2621" from-port="0" to-layer="2622" to-port="0" />
		<edge from-layer="2622" from-port="1" to-layer="2623" to-port="1" />
		<edge from-layer="2623" from-port="2" to-layer="2626" to-port="0" />
		<edge from-layer="2624" from-port="0" to-layer="2625" to-port="0" />
		<edge from-layer="2625" from-port="1" to-layer="2626" to-port="1" />
		<edge from-layer="2626" from-port="2" to-layer="2627" to-port="0" />
		<edge from-layer="2627" from-port="2" to-layer="2666" to-port="1" />
		<edge from-layer="2627" from-port="2" to-layer="2651" to-port="0" />
		<edge from-layer="2627" from-port="2" to-layer="2643" to-port="0" />
		<edge from-layer="2627" from-port="2" to-layer="2635" to-port="0" />
		<edge from-layer="2627" from-port="2" to-layer="2659" to-port="0" />
		<edge from-layer="2627" from-port="2" to-layer="2630" to-port="0" />
		<edge from-layer="2628" from-port="0" to-layer="2629" to-port="0" />
		<edge from-layer="2629" from-port="1" to-layer="2630" to-port="1" />
		<edge from-layer="2630" from-port="2" to-layer="2633" to-port="0" />
		<edge from-layer="2631" from-port="0" to-layer="2632" to-port="0" />
		<edge from-layer="2632" from-port="1" to-layer="2633" to-port="1" />
		<edge from-layer="2633" from-port="2" to-layer="2634" to-port="0" />
		<edge from-layer="2634" from-port="2" to-layer="2659" to-port="1" />
		<edge from-layer="2634" from-port="2" to-layer="2635" to-port="1" />
		<edge from-layer="2634" from-port="2" to-layer="2651" to-port="1" />
		<edge from-layer="2634" from-port="2" to-layer="2643" to-port="1" />
		<edge from-layer="2635" from-port="2" to-layer="2638" to-port="0" />
		<edge from-layer="2636" from-port="0" to-layer="2637" to-port="0" />
		<edge from-layer="2637" from-port="1" to-layer="2638" to-port="1" />
		<edge from-layer="2638" from-port="2" to-layer="2641" to-port="0" />
		<edge from-layer="2639" from-port="0" to-layer="2640" to-port="0" />
		<edge from-layer="2640" from-port="1" to-layer="2641" to-port="1" />
		<edge from-layer="2641" from-port="2" to-layer="2642" to-port="0" />
		<edge from-layer="2642" from-port="2" to-layer="2659" to-port="2" />
		<edge from-layer="2642" from-port="2" to-layer="2651" to-port="2" />
		<edge from-layer="2642" from-port="2" to-layer="2643" to-port="2" />
		<edge from-layer="2643" from-port="3" to-layer="2646" to-port="0" />
		<edge from-layer="2644" from-port="0" to-layer="2645" to-port="0" />
		<edge from-layer="2645" from-port="1" to-layer="2646" to-port="1" />
		<edge from-layer="2646" from-port="2" to-layer="2649" to-port="0" />
		<edge from-layer="2647" from-port="0" to-layer="2648" to-port="0" />
		<edge from-layer="2648" from-port="1" to-layer="2649" to-port="1" />
		<edge from-layer="2649" from-port="2" to-layer="2650" to-port="0" />
		<edge from-layer="2650" from-port="2" to-layer="2659" to-port="3" />
		<edge from-layer="2650" from-port="2" to-layer="2651" to-port="3" />
		<edge from-layer="2651" from-port="4" to-layer="2654" to-port="0" />
		<edge from-layer="2652" from-port="0" to-layer="2653" to-port="0" />
		<edge from-layer="2653" from-port="1" to-layer="2654" to-port="1" />
		<edge from-layer="2654" from-port="2" to-layer="2657" to-port="0" />
		<edge from-layer="2655" from-port="0" to-layer="2656" to-port="0" />
		<edge from-layer="2656" from-port="1" to-layer="2657" to-port="1" />
		<edge from-layer="2657" from-port="2" to-layer="2658" to-port="0" />
		<edge from-layer="2658" from-port="2" to-layer="2659" to-port="4" />
		<edge from-layer="2659" from-port="5" to-layer="2662" to-port="0" />
		<edge from-layer="2660" from-port="0" to-layer="2661" to-port="0" />
		<edge from-layer="2661" from-port="1" to-layer="2662" to-port="1" />
		<edge from-layer="2662" from-port="2" to-layer="2665" to-port="0" />
		<edge from-layer="2663" from-port="0" to-layer="2664" to-port="0" />
		<edge from-layer="2664" from-port="1" to-layer="2665" to-port="1" />
		<edge from-layer="2665" from-port="2" to-layer="2666" to-port="0" />
		<edge from-layer="2666" from-port="2" to-layer="2669" to-port="0" />
		<edge from-layer="2667" from-port="0" to-layer="2668" to-port="0" />
		<edge from-layer="2668" from-port="1" to-layer="2669" to-port="1" />
		<edge from-layer="2669" from-port="2" to-layer="2670" to-port="0" />
		<edge from-layer="2670" from-port="2" to-layer="2673" to-port="0" />
		<edge from-layer="2670" from-port="2" to-layer="2694" to-port="0" />
		<edge from-layer="2670" from-port="2" to-layer="2686" to-port="0" />
		<edge from-layer="2670" from-port="2" to-layer="2791" to-port="1" />
		<edge from-layer="2670" from-port="2" to-layer="2709" to-port="1" />
		<edge from-layer="2670" from-port="2" to-layer="2702" to-port="0" />
		<edge from-layer="2670" from-port="2" to-layer="2678" to-port="0" />
		<edge from-layer="2671" from-port="0" to-layer="2672" to-port="0" />
		<edge from-layer="2672" from-port="1" to-layer="2673" to-port="1" />
		<edge from-layer="2673" from-port="2" to-layer="2676" to-port="0" />
		<edge from-layer="2674" from-port="0" to-layer="2675" to-port="0" />
		<edge from-layer="2675" from-port="1" to-layer="2676" to-port="1" />
		<edge from-layer="2676" from-port="2" to-layer="2677" to-port="0" />
		<edge from-layer="2677" from-port="2" to-layer="2694" to-port="1" />
		<edge from-layer="2677" from-port="2" to-layer="2702" to-port="1" />
		<edge from-layer="2677" from-port="2" to-layer="2686" to-port="1" />
		<edge from-layer="2677" from-port="2" to-layer="2678" to-port="1" />
		<edge from-layer="2678" from-port="2" to-layer="2681" to-port="0" />
		<edge from-layer="2679" from-port="0" to-layer="2680" to-port="0" />
		<edge from-layer="2680" from-port="1" to-layer="2681" to-port="1" />
		<edge from-layer="2681" from-port="2" to-layer="2684" to-port="0" />
		<edge from-layer="2682" from-port="0" to-layer="2683" to-port="0" />
		<edge from-layer="2683" from-port="1" to-layer="2684" to-port="1" />
		<edge from-layer="2684" from-port="2" to-layer="2685" to-port="0" />
		<edge from-layer="2685" from-port="2" to-layer="2686" to-port="2" />
		<edge from-layer="2685" from-port="2" to-layer="2694" to-port="2" />
		<edge from-layer="2685" from-port="2" to-layer="2702" to-port="2" />
		<edge from-layer="2686" from-port="3" to-layer="2689" to-port="0" />
		<edge from-layer="2687" from-port="0" to-layer="2688" to-port="0" />
		<edge from-layer="2688" from-port="1" to-layer="2689" to-port="1" />
		<edge from-layer="2689" from-port="2" to-layer="2692" to-port="0" />
		<edge from-layer="2690" from-port="0" to-layer="2691" to-port="0" />
		<edge from-layer="2691" from-port="1" to-layer="2692" to-port="1" />
		<edge from-layer="2692" from-port="2" to-layer="2693" to-port="0" />
		<edge from-layer="2693" from-port="2" to-layer="2702" to-port="3" />
		<edge from-layer="2693" from-port="2" to-layer="2694" to-port="3" />
		<edge from-layer="2694" from-port="4" to-layer="2697" to-port="0" />
		<edge from-layer="2695" from-port="0" to-layer="2696" to-port="0" />
		<edge from-layer="2696" from-port="1" to-layer="2697" to-port="1" />
		<edge from-layer="2697" from-port="2" to-layer="2700" to-port="0" />
		<edge from-layer="2698" from-port="0" to-layer="2699" to-port="0" />
		<edge from-layer="2699" from-port="1" to-layer="2700" to-port="1" />
		<edge from-layer="2700" from-port="2" to-layer="2701" to-port="0" />
		<edge from-layer="2701" from-port="2" to-layer="2702" to-port="4" />
		<edge from-layer="2702" from-port="5" to-layer="2705" to-port="0" />
		<edge from-layer="2703" from-port="0" to-layer="2704" to-port="0" />
		<edge from-layer="2704" from-port="1" to-layer="2705" to-port="1" />
		<edge from-layer="2705" from-port="2" to-layer="2708" to-port="0" />
		<edge from-layer="2706" from-port="0" to-layer="2707" to-port="0" />
		<edge from-layer="2707" from-port="1" to-layer="2708" to-port="1" />
		<edge from-layer="2708" from-port="2" to-layer="2709" to-port="0" />
		<edge from-layer="2709" from-port="2" to-layer="2748" to-port="1" />
		<edge from-layer="2709" from-port="2" to-layer="2741" to-port="0" />
		<edge from-layer="2709" from-port="2" to-layer="2733" to-port="0" />
		<edge from-layer="2709" from-port="2" to-layer="2725" to-port="0" />
		<edge from-layer="2709" from-port="2" to-layer="2717" to-port="0" />
		<edge from-layer="2709" from-port="2" to-layer="2712" to-port="0" />
		<edge from-layer="2710" from-port="0" to-layer="2711" to-port="0" />
		<edge from-layer="2711" from-port="1" to-layer="2712" to-port="1" />
		<edge from-layer="2712" from-port="2" to-layer="2715" to-port="0" />
		<edge from-layer="2713" from-port="0" to-layer="2714" to-port="0" />
		<edge from-layer="2714" from-port="1" to-layer="2715" to-port="1" />
		<edge from-layer="2715" from-port="2" to-layer="2716" to-port="0" />
		<edge from-layer="2716" from-port="2" to-layer="2725" to-port="1" />
		<edge from-layer="2716" from-port="2" to-layer="2741" to-port="1" />
		<edge from-layer="2716" from-port="2" to-layer="2733" to-port="1" />
		<edge from-layer="2716" from-port="2" to-layer="2717" to-port="1" />
		<edge from-layer="2717" from-port="2" to-layer="2720" to-port="0" />
		<edge from-layer="2718" from-port="0" to-layer="2719" to-port="0" />
		<edge from-layer="2719" from-port="1" to-layer="2720" to-port="1" />
		<edge from-layer="2720" from-port="2" to-layer="2723" to-port="0" />
		<edge from-layer="2721" from-port="0" to-layer="2722" to-port="0" />
		<edge from-layer="2722" from-port="1" to-layer="2723" to-port="1" />
		<edge from-layer="2723" from-port="2" to-layer="2724" to-port="0" />
		<edge from-layer="2724" from-port="2" to-layer="2725" to-port="2" />
		<edge from-layer="2724" from-port="2" to-layer="2733" to-port="2" />
		<edge from-layer="2724" from-port="2" to-layer="2741" to-port="2" />
		<edge from-layer="2725" from-port="3" to-layer="2728" to-port="0" />
		<edge from-layer="2726" from-port="0" to-layer="2727" to-port="0" />
		<edge from-layer="2727" from-port="1" to-layer="2728" to-port="1" />
		<edge from-layer="2728" from-port="2" to-layer="2731" to-port="0" />
		<edge from-layer="2729" from-port="0" to-layer="2730" to-port="0" />
		<edge from-layer="2730" from-port="1" to-layer="2731" to-port="1" />
		<edge from-layer="2731" from-port="2" to-layer="2732" to-port="0" />
		<edge from-layer="2732" from-port="2" to-layer="2741" to-port="3" />
		<edge from-layer="2732" from-port="2" to-layer="2733" to-port="3" />
		<edge from-layer="2733" from-port="4" to-layer="2736" to-port="0" />
		<edge from-layer="2734" from-port="0" to-layer="2735" to-port="0" />
		<edge from-layer="2735" from-port="1" to-layer="2736" to-port="1" />
		<edge from-layer="2736" from-port="2" to-layer="2739" to-port="0" />
		<edge from-layer="2737" from-port="0" to-layer="2738" to-port="0" />
		<edge from-layer="2738" from-port="1" to-layer="2739" to-port="1" />
		<edge from-layer="2739" from-port="2" to-layer="2740" to-port="0" />
		<edge from-layer="2740" from-port="2" to-layer="2741" to-port="4" />
		<edge from-layer="2741" from-port="5" to-layer="2744" to-port="0" />
		<edge from-layer="2742" from-port="0" to-layer="2743" to-port="0" />
		<edge from-layer="2743" from-port="1" to-layer="2744" to-port="1" />
		<edge from-layer="2744" from-port="2" to-layer="2747" to-port="0" />
		<edge from-layer="2745" from-port="0" to-layer="2746" to-port="0" />
		<edge from-layer="2746" from-port="1" to-layer="2747" to-port="1" />
		<edge from-layer="2747" from-port="2" to-layer="2748" to-port="0" />
		<edge from-layer="2748" from-port="2" to-layer="2756" to-port="0" />
		<edge from-layer="2748" from-port="2" to-layer="2780" to-port="0" />
		<edge from-layer="2748" from-port="2" to-layer="2772" to-port="0" />
		<edge from-layer="2748" from-port="2" to-layer="2787" to-port="1" />
		<edge from-layer="2748" from-port="2" to-layer="2751" to-port="0" />
		<edge from-layer="2748" from-port="2" to-layer="2764" to-port="0" />
		<edge from-layer="2749" from-port="0" to-layer="2750" to-port="0" />
		<edge from-layer="2750" from-port="1" to-layer="2751" to-port="1" />
		<edge from-layer="2751" from-port="2" to-layer="2754" to-port="0" />
		<edge from-layer="2752" from-port="0" to-layer="2753" to-port="0" />
		<edge from-layer="2753" from-port="1" to-layer="2754" to-port="1" />
		<edge from-layer="2754" from-port="2" to-layer="2755" to-port="0" />
		<edge from-layer="2755" from-port="2" to-layer="2764" to-port="1" />
		<edge from-layer="2755" from-port="2" to-layer="2772" to-port="1" />
		<edge from-layer="2755" from-port="2" to-layer="2780" to-port="1" />
		<edge from-layer="2755" from-port="2" to-layer="2756" to-port="1" />
		<edge from-layer="2756" from-port="2" to-layer="2759" to-port="0" />
		<edge from-layer="2757" from-port="0" to-layer="2758" to-port="0" />
		<edge from-layer="2758" from-port="1" to-layer="2759" to-port="1" />
		<edge from-layer="2759" from-port="2" to-layer="2762" to-port="0" />
		<edge from-layer="2760" from-port="0" to-layer="2761" to-port="0" />
		<edge from-layer="2761" from-port="1" to-layer="2762" to-port="1" />
		<edge from-layer="2762" from-port="2" to-layer="2763" to-port="0" />
		<edge from-layer="2763" from-port="2" to-layer="2764" to-port="2" />
		<edge from-layer="2763" from-port="2" to-layer="2780" to-port="2" />
		<edge from-layer="2763" from-port="2" to-layer="2772" to-port="2" />
		<edge from-layer="2764" from-port="3" to-layer="2767" to-port="0" />
		<edge from-layer="2765" from-port="0" to-layer="2766" to-port="0" />
		<edge from-layer="2766" from-port="1" to-layer="2767" to-port="1" />
		<edge from-layer="2767" from-port="2" to-layer="2770" to-port="0" />
		<edge from-layer="2768" from-port="0" to-layer="2769" to-port="0" />
		<edge from-layer="2769" from-port="1" to-layer="2770" to-port="1" />
		<edge from-layer="2770" from-port="2" to-layer="2771" to-port="0" />
		<edge from-layer="2771" from-port="2" to-layer="2780" to-port="3" />
		<edge from-layer="2771" from-port="2" to-layer="2772" to-port="3" />
		<edge from-layer="2772" from-port="4" to-layer="2775" to-port="0" />
		<edge from-layer="2773" from-port="0" to-layer="2774" to-port="0" />
		<edge from-layer="2774" from-port="1" to-layer="2775" to-port="1" />
		<edge from-layer="2775" from-port="2" to-layer="2778" to-port="0" />
		<edge from-layer="2776" from-port="0" to-layer="2777" to-port="0" />
		<edge from-layer="2777" from-port="1" to-layer="2778" to-port="1" />
		<edge from-layer="2778" from-port="2" to-layer="2779" to-port="0" />
		<edge from-layer="2779" from-port="2" to-layer="2780" to-port="4" />
		<edge from-layer="2780" from-port="5" to-layer="2783" to-port="0" />
		<edge from-layer="2781" from-port="0" to-layer="2782" to-port="0" />
		<edge from-layer="2782" from-port="1" to-layer="2783" to-port="1" />
		<edge from-layer="2783" from-port="2" to-layer="2786" to-port="0" />
		<edge from-layer="2784" from-port="0" to-layer="2785" to-port="0" />
		<edge from-layer="2785" from-port="1" to-layer="2786" to-port="1" />
		<edge from-layer="2786" from-port="2" to-layer="2787" to-port="0" />
		<edge from-layer="2787" from-port="2" to-layer="2790" to-port="0" />
		<edge from-layer="2788" from-port="0" to-layer="2789" to-port="0" />
		<edge from-layer="2789" from-port="1" to-layer="2790" to-port="1" />
		<edge from-layer="2790" from-port="2" to-layer="2791" to-port="0" />
		<edge from-layer="2791" from-port="2" to-layer="2794" to-port="0" />
		<edge from-layer="2792" from-port="0" to-layer="2793" to-port="0" />
		<edge from-layer="2793" from-port="1" to-layer="2794" to-port="1" />
		<edge from-layer="2794" from-port="2" to-layer="2797" to-port="0" />
		<edge from-layer="2795" from-port="0" to-layer="2796" to-port="0" />
		<edge from-layer="2796" from-port="1" to-layer="2797" to-port="1" />
		<edge from-layer="2797" from-port="2" to-layer="2798" to-port="1" />
		<edge from-layer="2798" from-port="2" to-layer="2801" to-port="0" />
		<edge from-layer="2799" from-port="0" to-layer="2801" to-port="1" />
		<edge from-layer="2800" from-port="0" to-layer="2801" to-port="2" />
		<edge from-layer="2801" from-port="3" to-layer="2804" to-port="0" />
		<edge from-layer="2802" from-port="0" to-layer="2803" to-port="0" />
		<edge from-layer="2803" from-port="1" to-layer="2804" to-port="1" />
		<edge from-layer="2804" from-port="2" to-layer="2807" to-port="0" />
		<edge from-layer="2805" from-port="0" to-layer="2806" to-port="0" />
		<edge from-layer="2806" from-port="1" to-layer="2807" to-port="1" />
		<edge from-layer="2807" from-port="2" to-layer="2810" to-port="0" />
		<edge from-layer="2808" from-port="0" to-layer="2809" to-port="0" />
		<edge from-layer="2809" from-port="1" to-layer="2810" to-port="1" />
		<edge from-layer="2810" from-port="2" to-layer="2813" to-port="0" />
		<edge from-layer="2811" from-port="0" to-layer="2813" to-port="1" />
		<edge from-layer="2812" from-port="0" to-layer="2813" to-port="2" />
		<edge from-layer="2813" from-port="3" to-layer="2816" to-port="0" />
		<edge from-layer="2814" from-port="0" to-layer="2815" to-port="0" />
		<edge from-layer="2815" from-port="1" to-layer="2816" to-port="1" />
		<edge from-layer="2816" from-port="2" to-layer="2819" to-port="0" />
		<edge from-layer="2817" from-port="0" to-layer="2818" to-port="0" />
		<edge from-layer="2818" from-port="1" to-layer="2819" to-port="1" />
		<edge from-layer="2819" from-port="2" to-layer="2822" to-port="0" />
		<edge from-layer="2820" from-port="0" to-layer="2821" to-port="0" />
		<edge from-layer="2821" from-port="1" to-layer="2822" to-port="1" />
		<edge from-layer="2822" from-port="2" to-layer="2825" to-port="0" />
		<edge from-layer="2823" from-port="0" to-layer="2824" to-port="0" />
		<edge from-layer="2824" from-port="1" to-layer="2825" to-port="1" />
		<edge from-layer="2825" from-port="2" to-layer="2828" to-port="0" />
		<edge from-layer="2826" from-port="0" to-layer="2827" to-port="0" />
		<edge from-layer="2827" from-port="1" to-layer="2828" to-port="1" />
		<edge from-layer="2828" from-port="2" to-layer="2831" to-port="0" />
		<edge from-layer="2829" from-port="0" to-layer="2830" to-port="0" />
		<edge from-layer="2830" from-port="1" to-layer="2831" to-port="1" />
		<edge from-layer="2831" from-port="2" to-layer="2834" to-port="0" />
		<edge from-layer="2832" from-port="0" to-layer="2833" to-port="0" />
		<edge from-layer="2833" from-port="1" to-layer="2834" to-port="1" />
		<edge from-layer="2834" from-port="2" to-layer="2837" to-port="0" />
		<edge from-layer="2835" from-port="0" to-layer="2836" to-port="0" />
		<edge from-layer="2836" from-port="1" to-layer="2837" to-port="1" />
		<edge from-layer="2837" from-port="2" to-layer="2838" to-port="0" />
	</edges>
	<rt_info>
		<Runtime_version value="2024.6.0-17404-4c0f47d2335-releases/2024/6" />
		<conversion_parameters>
			<framework value="pytorch" />
			<is_python_object value="True" />
		</conversion_parameters>
	</rt_info>
</net>
